training/lightning_logs/version_1/checkpoints/epoch=69-step=27930.ckpt (torch, 580497 bytes, 22 tensors)

model.encoder.norm.weight f4 [108]
1.0015813 0.9942686 1.0264292 0.9927039 1.0260192 0.9998951 1.0073012 1.0024335
0.99514014 1.0161798 0.98666674 1.0328529 1.0367581 1.0165905 0.99940497 0.98412913
1.0043039 0.9957599 1.0510385 1.0145799 0.97713435 0.99733746 1.0096081 1.0010211
1.0098366 1.0103797 1.0007328 1.0104171 0.96909505 0.9917233 1.0343391 1.0340401
1.0162147 0.99776095 0.9951975 0.9844261 0.99329215 1.0161647 1.0120823 1.0000244
0.9869418 0.9878035 1.0019219 1.0192446 1.0209513 0.9894478 1.0142808 1.0121474
0.9916796 0.9894737 1.0173452 1.0007963 1.0219507 0.9937273 0.989261 1.0083418
0.9700183 1.0139931 0.9946752 0.999455 1.0233842 0.9932794 0.9956026 1.0066613
0.9954766 0.99438006 0.9948443 1.0121082 1.0369139 1.0082538 0.9835872 0.97817636
1.0091496 1.0483896 1.0241334 1.0066742 1.0099657 0.99389255 1.0187948 0.9962788
1.0130724 1.0031036 1.0000395 1.0041946 0.9852276 1.0110315 0.98421156 0.9965924
0.99743634 1.0001397 0.9991535 1.0118238 0.9689013 1.009986 1.0164387 1.0092261
1.0255393 0.9979641 1.0092248 0.9986232 1.0041176 0.99788713 0.9982235 1.0192823
1.0160408 0.98858476 1.0261263 0.99641746
00000000: d133 803f 6388 7e3f 0862 833f d821 7e3f
00000010: 9954 833f 20f9 7f3f 3fef 803f be4f 803f
00000020: 81c1 7e3f 2e12 823f 3196 7c3f 8634 843f
00000030: 7db4 843f a31f 823f 01d9 7f3f e3ef 7b3f
00000040: 088d 803f 1fea 7e3f 6e88 863f c1dd 813f
00000050: 7a25 7a3f 8251 7f3f d73a 813f 7621 803f
00000060: 5342 813f 1f54 813f 0318 803f 5955 813f
00000070: 9d16 783f 94e1 7d3f 3965 843f 6d5b 843f
00000080: 5313 823f 436d 7f3f 43c5 7e3f 5903 7c3f
00000090: 6548 7e3f af11 823f ea8b 813f cd00 803f
000000a0: 38a8 7c3f b1e0 7c3f fa3e 803f 9b76 823f
000000b0: 88ae 823f 734c 7d3f f4d3 813f 0c8e 813f
000000c0: b7de 7d3f 264e 7d3f 5e38 823f 181a 803f
000000d0: 48cf 823f ea64 7e3f 3540 7d3f 5811 813f
000000e0: 1f53 783f 87ca 813f 09a3 7e3f 48dc 7f3f
000000f0: 41fe 823f 8f47 7e3f d0df 7e3f 47da 803f
00000100: 8ed7 7e3f b18f 7e3f 1eae 7e3f c38c 813f
00000110: 98b9 843f 760e 813f 5fcc 7b3f c469 7a3f
00000120: d02b 813f a131 863f ce16 833f b3da 803f
00000130: 8e46 813f be6f 7e3f de67 823f 210c 7f3f
00000140: 5bac 813f b365 803f 4b01 803f 7389 803f
00000150: e037 7c3f 7b69 813f 4af5 7b3f ae20 7f3f
00000160: fd57 7f3f 9404 803f 86c8 7f3f 7183 813f
00000170: ea09 783f 3947 813f aa1a 823f 522e 813f
00000180: df44 833f 937a 7f3f 472e 813f c5a5 7f3f
00000190: ed86 803f 8875 7f3f 938b 7f3f d877 823f
000001a0: a00d 823f e413 7d3f 1b58 833f 3715 7f3f

model.encoder.norm.bias f4 [108]
0.0095496895 0.0034407955 0.0039535337 0.015335527 0.012175729 0.0099152615 0.009053693 -0.0052064275
-0.0054278346 -0.00029333064 -0.014992173 0.0055912137 0.0010856368 -0.009906188 -0.0075941854 0.008113144
-0.0045206565 -0.0101219965 -0.011218754 0.0073958538 0.00037637987 -0.0038899635 -0.0023089747 -0.01010198
-0.005298022 -0.004926484 -0.008765923 -0.0013382385 -0.0005856448 0.0041253497 0.0077357967 0.0019922613
-0.0017344106 -0.006566355 0.009200114 0.007937016 0.0045434497 6.648301e-05 0.008982652 0.002457955
0.011362811 0.0009434116 0.013755206 0.00896483 0.003273416 -0.001593195 -0.009582884 -0.0047144773
-0.0024563838 -0.0068596597 0.0060311104 -0.009658286 -0.0098853195 0.000963202 -0.0042532776 -0.010681045
0.014855136 0.0027106283 0.000793575 0.008375621 0.004362393 0.0118093025 0.0009603316 0.0042517497
0.007648904 0.009796901 -0.008046817 -0.0039082505 0.004104594 -0.002429321 -0.0074435878 -0.008454972
0.0044669104 -0.012212529 0.01209763 -0.011243474 -0.005763848 0.005666095 0.009397994 -0.002719346
0.010317575 0.013595781 0.011646211 0.008859521 -0.0066105905 -0.0050283214 0.0041517364 -0.0047065415
0.0008082048 -0.009959382 0.00015819946 -0.011734774 -0.0029772122 0.0006403321 -0.012964176 0.011253571
-0.005038858 -0.0060352357 -0.008102424 0.003933151 -0.0016384141 0.0107368855 0.007050165 0.0030847467
-0.0005252061 -0.0024114395 -0.0032473626 -0.0031831798
00000000: 4d76 1c3c f87e 613b a58c 813b dd41 7b3c
00000010: b57c 473c 9f73 223c f155 143c ae9a aabb
00000020: fadb b1bb 2cca 99b9 bba1 75bc 8036 b73b
00000030: ed4b 8e3a 904d 22bc a5d8 f8bb feec 043c
00000040: 0422 94bb bbd6 25bc ddce 37bc eb58 f23b
00000050: da54 c539 c2ee 7ebb 2b52 17bb c682 25bc
00000060: 089b adbb 586e a1bb f29e 0fbc d567 afba
00000070: f585 19ba f12d 873b 917c fd3b 9990 023b
00000080: 2a55 e3ba 942a d7bb 13bc 163c 420a 023c
00000090: 38e1 943b cb6c 8b38 f92b 133c a415 213b
000000a0: 152b 3a3c 484f 773a 845d 613c 39e1 123c
000000b0: cf86 563b c1d2 d0ba 8701 1dbc e77b 9abb
000000c0: 48fb 20bb ffc6 e0bb 9fa0 c53b ca3d 1ebc
000000d0: 09f6 21bc 647f 7c3a 145f 8bbb 8dff 2ebc
000000e0: f562 733c cca4 313b eb07 503a e739 093c
000000f0: 68f2 8e3b ce7b 413c c3be 7b3a 4352 8b3b
00000100: a8a3 fa3b 2e83 203c ccd6 03bc c810 80bb
00000110: d47f 863b 3e35 1fbb 57e9 f3bb b986 0abc
00000120: 295f 923b 0f17 48bc 2335 463c 8c36 38bc
00000130: a9de bcbb a6aa b93b 0bfa 193c 0e37 32bb
00000140: 0c0b 293c d7c0 5e3c c0cf 3e3c 8627 113c
00000150: a79d d8bb 9ec4 a4bb 4a0b 883b 5539 9abb
00000160: b5dd 533a ad2c 23bc 58e2 2539 3643 40bc
00000170: 551d 43bb f6db 273a b267 54bc e660 383c
00000180: 011d a5bb 3ac3 c5bb 08c0 04bc a9e1 803b
00000190: 0ec0 d6ba c3e9 2f3c 1205 e73b 7629 4a3b
000001a0: fcad 09ba 3e09 1ebb b4d1 54bb e59c 50bb

model.encoder.attn_blck.in_proj_weight f4 [324, 108]
-0.106532715 0.07930008 -0.11525446 0.085732214 0.084924646 -0.07018745 -0.1148192 0.024672098
0.05197319 0.09105369 -0.06719295 0.117778584 0.025068017 -0.0690873 -0.026458599 -0.08701603
0.033047218 -0.07448315 0.07003637 0.039592955 -0.0033064806 -0.02796888 -0.09726186 -0.041677598
0.12708865 0.01220944 -0.09727463 -0.096010596 0.09935801 0.052124713 0.11847444 -0.12436306
-0.08915364 0.07760994 0.0774618 0.11665641 0.061221447 0.037767187 -0.1094019 -0.059685364
-0.019472504 0.07418515 -0.036286034 0.0784096 0.093308724 -0.06768053 -0.010637941 -0.05692304
-0.038946714 -0.024615513 0.02092378 0.006258021 -0.11150299 -0.03586652 0.05038888 0.07994772
0.10727276 -0.061651904 -0.041901972 0.024395172 -0.056434754 -0.088316314 0.07305496 0.080750905
0.08137146 -0.11156339 0.042995043 -0.0058487863 -0.002879427 0.08230273 0.11234346 0.039227504
0.07408926 -0.08941675 0.10811704 0.05016303 -0.06612573 -0.095664226 -0.11830707 -0.107277505
0.081278406 0.07282854 -0.095441125 1.9828345e-05 -0.036585264 0.04491143 0.07470366 0.08725668
0.10868845 -0.1267432 0.05219148 0.06265212 0.05965664 0.019971216 0.07443619 -0.027961805
0.07758993 0.07295585 0.041474838 -0.067974895 -0.042144272 0.037401795 0.11446304 -0.1283451
-0.06284296 0.005040578 0.04786184 -0.029628152 -0.006579384 0.10863586 -0.07813267 -0.041582964
-0.03937656 -0.042286474 -0.037442237 -0.074468866 0.08361391 -0.09371478 0.10815304 -0.060765736
-0.0037073516 -0.015392685 0.0667263 -0.08085462 -0.0895758 0.028700339 -0.008461275 0.018566618
-0.06526711 -0.016680513 0.05253013 -0.01298362 0.061371535 -0.023258071 0.11320331 -0.11192283
-0.103761286 0.061653923 0.065653905 0.07655758 0.058535818 0.077543594 -0.08880718 -0.05848676
0.06458875 0.059045147 -0.07863344 -0.059476245 0.020043395 -0.041654877 -0.11548125 0.047655914
0.0895275 0.079243496 -0.058522437 0.058247045 0.103405096 -0.0639801 0.1240051 0.0012118254
-0.08645946 -0.08839896 -0.011533039 -0.10436378 -0.06867878 -0.05605781 0.030234545 0.060346328
-0.0007605405 0.105822414 -0.10904244 -0.074830934 -0.09492027 -0.072541244 -0.05707836 0.050066523
0.11304476 -0.014372734 0.04107992 0.044771366 -0.12245256 -0.06241915 -0.10663812 0.083075345
0.03534657 0.060970437 -0.053932153 0.102887 -0.060586896 0.060787655 -0.09969725 -0.0671164
-0.07101875 0.01737107 -0.07316464 0.01677445 0.11543169 0.09722298 -0.031355634 0.10024652
-0.012250635 -0.07687889 -0.07067903 -0.028933741 0.086307496 0.119150944 0.08217692 0.06070497
-0.010104733 0.065615624 0.1155155 0.0032820478 -0.097189225 -0.06936939 -0.021385577 0.1131549
0.07845983 -0.0070791193 0.0131269535 0.041115206 -0.0745547 -0.00015336774 -0.037545253 -0.051319722
-0.10971303 -0.10176328 -0.10581821 -0.07432411 0.11982646 -0.06983825 -0.06934652 -0.106233045
-0.08743977 -0.014132448 0.071048 -0.029372612 0.100938775 0.021514937 0.0360526 -0.0056299493
-0.08642857 0.015905889 0.07069448 -0.11163937 -0.0063696904 0.104196444 -0.010866333 -0.009117754
-0.060494337 -0.006421095 0.06439892 -0.09974305 0.017332232 0.104900956 0.08073403 0.11179368
00000000: d32d dabd 1568 a23d 880a ecbd 5f94 af3d
00000010: f9ec ad3d 70be 8fbd 5426 ebbd 241d ca3c
00000020: d7e1 543d 5b7a ba3d 759c 89bd e635 f13d
00000030: 715b cd3c a47d 8dbd b4bf d8bc 7635 b2bd
00000040: 855c 073d 9f8a 98bd 3a6f 8f3d 392c 223d
00000050: 8ab1 58bb fe1e e5bc 3a31 c7bd 21b6 2abd
00000060: 8723 023e 1a0a 483c ec37 c7bd 34a1 c4bd
00000070: 367c cb3d b980 553d baa2 f23d 0fb2 febd
00000080: 2f96 b6bd f6f1 9e3d 4ba4 9e3d 8ee9 ee3d
00000090: 57c3 7a3d c4b1 1a3d 1a0e e0bd a478 74bd
000000a0: cd84 9fbc 62ee 973d aaa0 14bd 3695 a03d
000000b0: a518 bf3d 179c 8abd c24a 2ebc 2228 69bd
000000c0: 9786 1fbd 79a6 c9bc 5968 ab3c 1610 cd3b
000000d0: ae5b e4bd c6e8 12bd 9264 4e3d a1bb a33d
000000e0: d2b1 db3d b586 7cbd 67a1 2bbd 62d8 c73c
000000f0: 2128 67bd 2fdf b4bd d79d 953d bb60 a53d
00000100: 14a6 a63d 597b e4bd 921b 303d 2da7 bfbb
00000110: c5b4 3cbb 558e a83d 5414 e63d 05ad 203d
00000120: 1cbc 973d 2120 b7bd 776c dd3d c077 4d3d
00000130: ed6c 87bd 9beb c3bd fa4a f2bd 4fb4 dbbd
00000140: 4b75 a63d 2127 953d a376 c3bd 0c55 a637
00000150: 6eda 15bd 0cf5 373d 3cfe 983d a1b3 b23d
00000160: 0d98 de3d f8c8 01be bcc6 553d c14f 803d
00000170: 855a 743d ad9a a33c 0072 983d 2810 e5bc
00000180: 78e7 9e3d e069 953d 85e1 293d 6c36 8bbd
00000190: 799f 2cbd a032 193d 996b ea3d e66c 03be
000001a0: cfb3 80bd 6f2b a53b c70a 443d bdb6 f2bc
000001b0: e097 d7bb 7a7c de3d 0504 a0bd e652 2abd
000001c0: 5149 21bd 9534 2dbd 085d 19bd 2283 98bd
000001d0: c53d ab3d 89ed bfbd 577f dd3d 7ee5 78bd
000001e0: 0af7 72bb 9a31 7cbc cca7 883d 1b97 a5bd
000001f0: 8473 b7bd f91c eb3c 29a1 0abc 0519 983c
00000200: c3aa 85bd 92a5 88bc d529 573d 40b9 54bc
00000210: b860 7b3d b687 bebc 23d7 e73d cc37 e5bd
00000220: cc80 d4bd d388 7c3d 8e75 863d 38ca 9c3d
00000230: 41c3 6f3d 2dcf 9e3d 8ae0 b5bd d08f 6fbd
00000240: 1b47 843d 53d9 713d 920a a1bd 5d9d 73bd
00000250: 0c32 a43c 4e9e 2abd 6f81 ecbd d932 433d
00000260: 325a b73d 6a4a a23d 39b5 6fbd 7494 6e3d
00000270: 0dc6 d33d 0008 83bd 63f6 fd3d 1dd6 9e3a
00000280: a811 b1bd 840a b5bd 12f5 3cbc adbc d5bd
00000290: 76a7 8cbd e09c 65bd 70ae f73c b62d 773d
000002a0: 025f 47ba 6cb9 d83d a551 dfbd f640 99bd
000002b0: 8f65 c2bd 8190 94bd 00cb 69bd 8e12 4d3d
000002c0: 0384 e73d 9e7b 6bbc 6b43 283d 2e62 373d
000002d0: 68c8 fabd 39ab 7fbd 1665 dabd 6823 aa3d
000002e0: 91c7 103d 23bc 793d f6e7 5cbd 6bb6 d23d
000002f0: f729 78bd 7afc 783d 122e ccbd 5374 89bd
00000300: 4772 91bd c64d 8e3c 58d7 95bd 926a 893c
00000310: 7367 ec3d d71c c73d c46e 00bd 0c4e cd3d
00000320: e3b6 48bc ae72 9dbd 2bc0 90bd 7406 edbc
00000330: fcc1 b03d 6905 f43d 5f4c a83d c6a5 783d
00000340: 528e 25bc 7c61 863d 6493 ec3d a017 573b
00000350: 250b c7bd 8a11 8ebd ce30 afbc c2bd e73d
00000360: 8caf a03d f5f7 e7bb 6f12 573c 6b68 283d
00000370: 22b0 98bd 57d1 20b9 0dc9 19bd a134 52bd
00000380: 3ab1 e0bd 4469 d0bd 38b7 d8bd 3d37 98bd
00000390: 9367 f53d 5b07 8fbd 8c05 8ebd b690 d9bd
000003a0: 9f13 b3bd c88b 67bc 9d81 913d d59e f0bc
000003b0: fdb8 ce3d 1840 b03c e4ab 133d 707b b8bb
000003c0: 7601 b1bd 114d 823c 44c8 903d 2fa3 e4bd
000003d0: d6b8 d0bb f264 d53d b408 32bc a262 15bc
000003e0: e9c8 77bd 0d68 d2bb 95e3 833d 1646 ccbd
000003f0: 53fc 8d3c 50d6 d63d e257 a53d 16f4 e43d

model.encoder.attn_blck.in_proj_bias f4 [324]
0.014654929 -0.0047336547 0.010295192 0.0056862305 -0.012067307 -0.0043294476 0.009966468 -0.007372302
0.0029205857 0.0025728634 -0.003966155 -0.0012986119 0.00036692718 -0.002676384 -0.001920173 -0.001889358
0.003799063 -0.004281671 0.0012916378 0.0013502715 0.0009154248 0.0031665915 0.00010957072 0.0004174319
0.0004771735 -0.00029456944 0.0024705976 0.0003651794 -0.0041874344 -0.0023253956 0.0029037003 0.005488157
-0.00052411045 -0.0027195779 -0.0004689585 -0.0023005283 0.00047063024 0.0072358 -2.2311262e-05 0.00015781542
0.0016352037 -0.001835617 0.0021881028 -0.0021582383 -0.0003475135 -0.0029539524 -0.0019990045 -0.0034389603
0.00036958352 -0.0044996454 -0.0012903177 0.0019598156 -0.0024708787 -0.0013889994 -0.0010642519 0.00458767
0.0010772414 0.0070368163 -0.0064036218 0.009276938 -0.0024525938 -0.013048292 -0.0005251156 -0.00075421354
0.0021487486 0.00020729822 0.0100038815 -0.0013130154 -0.00484615 -0.006661081 -0.0003689915 0.0005995912
-0.0005662812 -0.0032386703 -0.0007990431 0.0038680697 -0.00017227702 0.0010093462 0.0031613745 3.9913026e-05
0.00041587246 -0.00015149839 -0.0017662169 -0.0006569107 0.00040068492 0.00016354473 0.0011787417 -0.0017488688
0.00012038104 5.442937e-05 0.004449985 8.695617e-05 -0.00039953928 -0.0011239125 -0.00084630103 -0.001417082
-0.0019499606 -0.00019875364 0.0024398314 -0.0062709497 0.001768439 -0.0030994308 -0.00010539933 0.0018426251
0.002763562 0.0037804893 0.0006192062 0.0014794681 2.4955713e-11 -5.2493327e-12 -1.7348688e-11 1.5991928e-11
-1.9208283e-11 -1.6897003e-11 1.5952222e-11 8.697643e-12 -7.1086813e-12 8.425509e-11 9.451694e-13 -6.1788383e-12
9.39941e-11 -4.924623e-11 5.878443e-12 -2.0535762e-11 -2.809963e-11 2.7929966e-11 -1.5326155e-11 -6.6623933e-12
3.1976399e-12 -1.6845683e-11 -1.7192725e-11 1.5916803e-11 2.617415e-12 -1.11904834e-11 -3.6262842e-12 1.105241e-11
1.680647e-11 -1.5128081e-11 2.2326674e-13 1.655973e-11 8.2996995e-12 1.5812358e-11 -1.7774414e-11 1.1802711e-11
-1.03903665e-11 -7.9204346e-13 -1.8820966e-11 -3.8391934e-14 -1.875082e-11 1.02361505e-11 -8.92778e-12 1.3725833e-12
-8.890077e-12 -1.0366807e-11 3.484709e-12 2.1477509e-11 -2.8088677e-12 1.463458e-11 1.0143694e-12 -7.493303e-12
1.6101098e-11 5.05467e-12 -1.5668822e-11 -8.054883e-12 -2.1695517e-11 2.9528727e-11 8.608848e-12 3.179365e-12
6.545514e-12 1.0230541e-11 -3.5559283e-12 -1.8482448e-11 -7.410214e-12 -1.3894188e-11 -3.8523403e-11 7.637051e-12
1.2689626e-11 -1.3653722e-11 2.1701493e-11 -1.2367787e-11 -2.9864843e-12 1.5971454e-13 5.431325e-12 -1.741116e-11
5.6676634e-12 -3.0267765e-12 5.3740536e-12 -4.7918614e-12 -3.5205033e-12 -1.9118235e-11 1.6700944e-11 -2.5277605e-11
-1.6183258e-11 3.5425298e-11 2.3555912e-11 -1.242437e-12 8.655917e-12 2.2354711e-12 -1.6636931e-11 -5.4411482e-11
-1.6211928e-11 2.9689834e-11 1.6877026e-13 -3.1395145e-12 1.4475006e-11 2.9915638e-12 2.993799e-11 1.5922543e-11
-6.7796285e-12 -9.989455e-12 -2.8799976e-11 -1.0135456e-11 -9.699667e-12 -1.0431256e-11 -6.856979e-12 3.067054e-12
-0.0011273678 0.0028928495 0.00018662142 0.0012577847 0.007900481 -0.0014239039 -0.0056337034 0.00397846
-0.0014452756 0.0031239393 0.0040180767 -0.00015782192 0.000616206 -0.00097237964 0.00029008088 -0.0016915394
0.0041498686 0.0004036048 -0.0013809972 -0.001775477 0.00074314885 0.001187711 -0.0018598993 -0.0012153876
-0.006321612 -0.0019675577 0.001923586 0.00045197102 -0.00050088204 -0.002251874 6.210236e-05 0.0027984069
-0.0013380151 0.0035948202 0.0005223988 -0.00012903521 -0.0036028887 -0.0036876774 0.00024437383 0.006447902
00000000: 3a1b 703c c61c 9bbb 2aad 283c 8f53 ba3b
00000010: f4b5 45bc 0ade 8dbb 664a 233c 5a93 f1bb
00000020: 4c67 3f3b 7c9d 283b 85f6 81bb 2f36 aaba
00000030: 2260 c039 4666 2fbb 50ae fbba 56a4 f7ba
00000040: b3f9 783b 424d 8cbb 2c4c a93a 98fb b03a
00000050: 1ef9 6f3a 9786 4f3b 55c9 e538 c3da da39
00000060: 252d fa39 7170 9ab9 c0e9 213b 8d75 bf39
00000070: bf36 89bb aa65 18bb 024c 3e3b ffd5 b33b
00000080: 7564 09ba f23a 32bb 8bde f5b9 76c4 16bb
00000090: ecbe f639 4a1a ed3b 1229 bbb7 417b 2539
000000a0: 5554 d63a 1699 f0ba 4666 0f3b 3b71 0dbb
000000b0: 7932 b6b9 1997 41bb bb01 03bb 2e60 61bb
000000c0: a9c4 c139 c371 93bb e11f a9ba 4070 003b
000000d0: 77ee 21bb 160f b6ba 5e7e 8bba 2a54 963b
000000e0: 3932 8d3a 1895 e63b 79d5 d1bb 4cfe 173c
000000f0: b2bb 20bb 81c8 55bc e9a7 09ba 6ab6 45ba
00000100: 05d2 0c3b 315e 5939 52e7 233c 7c19 acba
00000110: 74cc 9ebb 3345 dabb 3375 c1b9 e22d 1d3a
00000120: 7d72 14ba df3f 54bb e076 51ba 717f 7d3b
00000130: 43a5 34b9 0a4c 843a 102f 4f3b 4968 2738
00000140: 7509 da39 8adb 1eb9 6880 e7ba 8834 2cba
00000150: 0513 d239 347d 2b39 0280 9a3a 4d3a e5ba
00000160: 1475 fc38 174b 6438 2ed1 913b 3d5c b638
00000170: 4179 d1b9 3f50 93ba 4dda 5dba 62bd b9ba
00000180: d295 ffba 8668 50b9 94e5 1f3b 8a7c cdbb
00000190: f7ca e73a d21f 4bbb d609 ddb8 3d84 f13a
000001a0: e01c 353b 16c2 773b 3a52 223a b6ea c13a
000001b0: 4583 db2d c9b1 b8ac c699 98ad 9faa 8c2d
000001c0: 35f5 a8ad aba0 94ad 3651 8c2d b402 192d
000001d0: 4f1d faac 6647 b92e 5105 852b 0766 d9ac
000001e0: f9b1 ce2e 5396 58ae 4fd4 ce2c 6da2 b4ad
000001f0: be2a f7ad b1ac f52d 6fcf 86ad 8169 eaac
00000200: 8f03 612c 1b2d 94ad 933a 97ad 7401 8c2d
00000210: 282f 382c 75dd 44ad 542d 7fac a16f 422d
00000220: ced4 932d 6911 85ad 4260 7b2a 32a9 912d
00000230: 8602 122d 4416 8b2d 6c58 9cad afa2 4f2d
00000240: 0dca 36ad bff0 5eab 0c8d a5ad e3e6 2ca9
00000250: 18ef a4ad 8613 342d 260f 1dad 862c c12b
00000260: 5965 1cad f35f 36ad f036 752c 0deb bc2d
00000270: 10a8 45ac 25ba 802d 82c2 8e2b d6d2 03ad
00000280: 73a0 8d2d 6bd8 b12c 0dd3 89ad f8b3 0dad
00000290: f6d5 bead 64de 012e ce72 172d 59ba 5f2c
000002a0: c04c e62c 43fa 332d e939 7aac c692 a2ad
000002b0: a35c 02ad dc6d 74ad 7f6d 29ae 385a 062d
000002c0: ff3c 5f2d e632 70ad 6be3 be2d 9093 59ad
000002d0: b827 52ac 95d2 332a 0719 bf2c 7226 99ad
000002e0: c669 c72c 8ffd 54ac 2c15 bd2c 4099 a8ac
000002f0: c0bb 77ac 702a a8ad 2fe7 922d 1b58 dead
00000300: 7559 8ead 57cd 1b2e 3333 cf2d 83db aeab
00000310: c946 182d ab4e 1d2c 0a57 92ad e24d 6fae
00000320: 049a 8ead c893 022e b704 3e2a 77ec 5cac
00000330: a2a5 7e2d 3983 522c 2eab 032e 610e 8c2d
00000340: 7789 eeac 81bc 2fad c853 fdad 094e 32ad
00000350: 6ba3 2aad 3382 37ad 2d42 f1ac 22d3 572c
00000360: 30c4 93ba f695 3d3b ceaf 4339 40dc a43a
00000370: 0571 013c 49a2 baba ee9a b8bb be5d 823b
00000380: 676f bdba 01bb 4c3b 12aa 833b 007d 25b9
00000390: e288 213a 4be7 7eba ff15 9839 a5b6 ddba
000003a0: 9ffb 873b eb9a d339 9402 b5ba 1fb7 e8ba
000003b0: e0cf 423a f8ac 9b3a ddc7 f3ba a44d 9fba
000003c0: 8625 cfbb 24f2 00bb d620 fc3a 86f6 ec39
000003d0: a04d 03ba 2d94 13bb f33c 8238 7a65 373b
000003e0: 5660 afba 1397 6b3b 97f1 083a a04d 07b9
000003f0: 711e 6cbb f6ac 71bb 4d1f 8039 ec48 d33b

model.encoder.attn_blck.out_proj.weight f4 [108, 108]
-0.048691206 -0.07942009 -0.06880772 -0.101772994 -0.072671145 0.056449752 -0.03687779 -0.055890124
-0.055594824 -0.028765123 0.08095986 -0.04720256 0.055760607 -0.03378774 -0.048215564 0.013938764
-0.08531031 -0.002184951 -0.08495524 -0.091641925 -0.03547439 0.04084135 0.07305638 -0.08525512
-0.089858405 0.020342365 0.052741837 0.02107584 -0.08775298 0.05829515 -0.02048444 0.080888644
-0.057003547 0.027092325 0.0027302266 -0.06888008 0.0031296285 -0.08171572 -0.04100371 0.080959626
0.010860997 0.0992954 -0.07058227 0.03668769 0.041211087 -0.06825222 0.05488396 -0.010725219
-0.061699796 0.033736352 -0.033770416 0.013818582 0.09390275 -0.05301385 0.042154063 -0.08936968
0.04573086 -0.06796419 -0.02064331 -0.0020848687 0.009616482 -0.0057486314 -0.08385018 -0.023280643
-0.05147203 -0.042899217 0.023605265 -0.029595586 -0.084781446 0.04438897 0.053181347 -0.058300253
-0.09185105 -0.07541216 0.05604513 -0.05044877 -0.08429872 0.015740115 -0.06301811 -0.024175353
-0.0536314 0.040058594 0.05200958 0.051086735 0.05644472 -0.07677101 0.046655156 0.04358963
-0.09851562 -0.045656633 0.019767676 -0.08412545 -0.110145696 -0.027131142 -0.06804566 -0.08551387
-0.026315995 -0.0411474 0.054249115 0.08671819 -0.07208335 -0.004011179 0.047883287 -0.0900481
0.029891852 0.09488146 0.030849092 0.0529919 -0.04174957 0.046954587 -0.00017281857 0.019290177
0.0027747387 -0.0067294748 0.06909559 0.008666884 -0.011352847 -0.038962662 0.051278975 0.07489153
-0.044874977 0.039262425 -0.072690345 0.08047568 -0.08793337 -0.098687656 -0.00086827035 0.06814503
-0.0913957 0.058254562 0.03248277 -0.029553546 -0.057761267 -0.07420872 -0.0052531245 -0.021626234
0.0395914 0.062498175 0.004709185 0.048677746 -0.03431086 0.06480907 -0.06226221 0.0714951
0.012749463 -0.04731022 0.09354949 -0.026772154 -0.07287573 0.08248546 0.07924387 0.066936515
0.03246126 0.038536597 0.07515927 0.021844598 0.0743333 -0.023560261 0.011376063 0.087812535
0.09362043 0.020553233 -0.019540576 -0.016939655 -0.014375747 -0.017622598 0.043705866 0.006869032
0.065148756 0.017121235 -0.049721118 -0.045965627 0.07194211 -0.08117646 0.073848665 -0.07738856
-0.018905234 -0.0063641835 0.082313634 0.014581716 -0.11172993 0.028159073 -0.037044484 0.070368536
0.06086963 -0.034624 -0.022428764 0.011890175 -0.00734363 0.0093605425 -0.021308456 0.06004902
-0.036716513 0.0008629041 -0.08954377 0.02129586 -0.007371105 0.055009503 0.010503557 0.010273487
0.060094457 0.02020509 -0.018035382 0.0097411815 0.007952793 0.032070138 -0.026278945 -0.07408655
0.03534245 -0.014805814 -0.038036626 -0.0032746547 -0.055838753 -0.015410033 -0.026401965 0.089371905
0.04521345 -0.008466534 0.017478213 0.06359555 0.0025349814 0.09539583 -0.008678284 0.005461359
0.05237094 -0.0375156 -0.053159237 -0.036340095 -0.057403717 -0.03332394 -0.07150902 -0.09862833
0.013515642 0.03342912 -0.061971124 -0.04523399 0.012165465 0.09017223 0.08128812 0.077871576
-0.09414483 0.062189598 0.04420298 -0.057253994 -0.03633176 0.0045995554 -0.023818621 0.004673961
0.05835867 -0.06681656 -0.08737098 -0.008177578 0.045001216 0.043486174 0.029180778 -0.0006464351
00000000: 6e70 47bd 00a7 a2bd 10eb 8cbd 5c6e d0bd
00000010: 9cd4 94bd db37 673d 2a0d 17bd 0bed 64bd
00000020: 66b7 63bd d6a4 ebbc 48ce a53d 7957 41bd
00000030: 3c65 643d 0365 0abd af7d 45bd 6a5f 643c
00000040: 2cb7 aebd 6531 0fbb 03fd adbd c3ae bbbd
00000050: 984d 11bd 4249 273d 959e 953d 3d9a aebd
00000060: af07 b8bd 08a5 a63c d307 583d 3da7 ac3c
00000070: d6b7 b3bd e5c6 6e3d fcce a7bc f2a8 a53d
00000080: 8d7c 69bd b9f0 dd3c 9aed 323b 0011 8dbd
00000090: 741a 4d3b 925a a7bd 82f3 27bd 29ce a53d
000000a0: 53f2 313c 635b cb3d 708d 90bd d545 163d
000000b0: f5cc 283d d2c7 8bbd 01ce 603d d4b8 2fbc
000000c0: edb8 7cbd 212f 0a3d d952 0abd 5567 623c
000000d0: 1650 c03d 0d25 59bd bda9 2c3d 7307 b7bd
000000e0: 4850 3b3d cf30 8bbd 291c a9bc 4ba2 08bb
000000f0: 738e 1d3c 045f bcbb a5b9 abbd 0cb7 bebc
00000100: 56d4 52bd 17b7 2fbd d45f c13c 7172 f2bc
00000110: e5a1 adbd 35d1 353d afd4 593d 3fcc 6ebd
00000120: 671c bcbd b171 9abd 948f 653d 5fa3 4ebd
00000130: cfa4 acbd 6af1 803c a40f 81bd 640b c6bc
00000140: 99ac 5bbd 7b14 243d ff07 553d 5340 513d
00000150: 9432 673d 1f3a 9dbd 7a19 3f3d 0a8b 323d
00000160: 8fc2 c9bd 7302 3bbd d2ef a13c f749 acbd
00000170: 1194 e1bd 2142 debc 865b 8bbd e521 afbd
00000180: a494 d7bc 2d8a 28bd 5234 5e3d 4e99 b13d
00000190: 6fa0 93bd 3570 83bb 4421 443d 236b b8bd
000001a0: c2df f43c 3651 c23d 3cb7 fc3c 090e 593d
000001b0: 9901 2bbd 7453 403d a236 35b9 6f06 9e3c
000001c0: 64d8 353b ed82 dcbb fd81 8d3d 8cff 0d3c
000001d0: 4b01 3abc 5097 1fbd e709 523d bb60 993d
000001e0: d3ce 37bd a3d1 203d adde 94bd 6fd0 a43d
000001f0: 6916 b4bd c11c cabd a39c 63ba 9f8f 8b3d
00000200: ab2d bbbd 569c 6e3d a70c 053d 471a f2bc
00000210: 1497 6cbd befa 97bd 6722 acbb 8029 b1bc
00000220: 982a 223d 16fe 7f3d 824f 9a3b 5162 473d
00000230: 8b89 0cbd 9eba 843d a906 7fbd 066c 923d
00000240: 20e3 503c 5cc8 41bd e096 bf3d 4751 dbbc
00000250: df3f 95bd 23ee a83d 9c4a a23d 0316 893d
00000260: 19f6 043d 8dd8 1d3d 1aed 993d 71f3 b23c
00000270: 0f3c 983d 7301 c1bc ab62 3a3c 0fd7 b33d
00000280: 11bc bf3d 415f a83c 8f13 a0bc 08c5 8abc
00000290: 4188 6bbc 445d 90bc ec04 333d 9e15 e13b
000002a0: b66c 853d d541 8c3c 5fa8 4bbd 7446 3cbd
000002b0: 6356 933d d83f a6bd f83d 973d e57d 9ebd
000002c0: 26df 9abc a48a d0bb 0d94 a83d 26e8 6e3c
000002d0: a9d2 e4bd dbad e63c f5bb 17bd 611d 903d
000002e0: 6f52 793d e5d1 0dbd 87bc b7bc 02cf 423c
000002f0: d5a2 f0bb f65c 193c 128f aebc f6f5 753d
00000300: 0e64 16bd 8434 623a b962 b7bd a874 ae3c
00000310: 4f89 f1bb a551 613d 1c17 2c3c 2152 283c
00000320: 9b25 763d 2585 a53c f0be 93bc 7a99 1f3c
00000330: 6e4c 023c fa5b 033d f146 d7bc b0ba 97bd
00000340: 3fc3 103d 1694 72bc 4bcc 1bbd 979b 56bb
00000350: 2db7 64bd 5d7a 7cbc ef48 d8bc 9e08 b73d
00000360: bd31 393d 38b7 0abc 782e 8f3c 623e 823d
00000370: ee21 263b e45e c33d 5c2f 0ebc 33f5 b23b
00000380: e982 563d f5a9 19bd 80bd 59bd 5ad9 14bd
00000390: 2920 6bbd af7e 08bd 5273 92bd a6fd c9bd
000003a0: b670 5d3c f9ec 083d 6fd5 7dbd 4747 39bd
000003b0: a951 473c 38ac b83d 637a a63d 227b 9f3d
000003c0: 01cf c0bd 85ba 7e3d 2f0e 353d 2a83 6abd
000003d0: 9dd0 14bd deb7 963b 451f c3bc 0728 993b
000003e0: 8009 6f3d 1fd7 88bd 8eef b2bd 40fb 05bc
000003f0: 3253 383d 8f1e 323d 870c ef3c 8675 29ba

model.encoder.attn_blck.out_proj.bias f4 [108]
0.0071697445 0.0014076673 0.0024913044 0.007070888 0.009590232 0.0058382275 0.0116836345 -0.0014904654
-0.007966131 0.0014660006 -0.011337307 0.0066493307 0.0005228744 -0.0070351413 -0.0092682205 0.005160384
-0.0043759774 -0.007537915 -0.007843994 0.0006548829 -0.0069622304 -0.0029123807 0.0009206327 -0.006344851
-0.005368382 -0.005809775 -0.006123949 0.0035366209 0.0006486962 0.0021751057 0.0055260663 0.0023753147
0.002622087 -0.005581039 0.0056171473 0.0044928016 0.0005748953 -0.0006771475 0.0014903515 0.0020909505
0.010102463 -0.0034589432 0.0105708735 0.007908166 -0.001253829 -0.003541594 -0.003275965 -0.003731001
-0.005415343 -0.0065279664 5.0250463e-05 -0.010759257 -0.009174857 0.00018422416 -0.004125842 -0.01049269
0.008414397 0.0031956546 -0.0017761645 0.0064679263 0.0020461096 0.0126143275 -0.0015175013 0.0017762796
0.007238912 0.0031103066 -0.006052235 0.00076174457 0.0038623926 -0.0025467458 -0.006570158 -0.0090765925
0.008789659 -0.0058892905 0.0065405983 -0.007401159 -0.006419481 0.004018212 0.012004997 -0.0021144454
0.008498358 0.011229656 0.00865463 0.0038475469 -0.004502585 -0.0041794004 0.0021203454 -0.005782199
0.005694331 -0.0046765287 0.0013036606 -0.012299853 -0.004842906 0.0044677528 -0.013882801 0.011551203
-0.0032240727 -0.0039455495 -0.006069704 0.0048518027 -0.00013619133 0.0051196725 0.0048490954 -0.00052908435
0.00090966927 0.00062907056 -0.00036722326 -0.0029663285
00000000: 2df0 ea3b 7a81 b83a 2745 233b e8b2 e73b
00000010: 5920 1d3c 9a4e bf3b b76c 3f3c b85b c3ba
00000020: 6084 02bc d126 c03a 1dc0 39bc a1e2 d93b
00000030: 8211 093a 0b87 e6bb bcd9 17bc 7018 a93b
00000040: 5c64 8fbb 9d00 f7bb 1884 00bc 73ac 2b3a
00000050: 6c23 e4bb a4dd 3ebb 9d56 713a 78e8 cfbb
00000060: 41e9 afbb ed5f bebb 68ab c8bb a7c6 673b
00000070: 440d 2a3a 388c 0e3b 0114 b53b 2bab 1b3b
00000080: 52d7 2b3b 26e1 b6bb 0c10 b83b 5a38 933b
00000090: 92b4 163a 9982 31ba e657 c33a 5408 093b
000000a0: cd84 253c 70af 62bb 7531 2d3c 4191 013c
000000b0: 8557 a4ba 161a 68bb 93b1 56bb cf83 74bb
000000c0: 3173 b1bb 8de8 d5bb 06c4 5238 9847 30bc
000000d0: 2452 16bc 4c2c 4139 1232 87bb 88e9 2bbc
000000e0: 8adc 093c 306e 513b 31ce e8ba e6f0 d33b
000000f0: 0618 063b 53ac 4e3c e5e6 c6ba 0ed2 e83a
00000100: 6534 ed3b 49d6 4b3b d451 c6bb d0af 473a
00000110: 3220 7d3b 4ee7 26bb 7b4a d7bb fdb5 14bc
00000120: 8002 103c f3fa c0bb 8452 d63b 6c85 f2bb
00000130: 825a d2bb 35ab 833b 9bb0 443c 8292 0abb
00000140: b23c 0b3c 97fc 373c 26cc 0d3c 2027 7c3b
00000150: 6c8a 93bb 5af3 88bb 7ef5 0a3b 9a78 bdbb
00000160: 8397 ba3b 913d 99bb 97df aa3a 5385 49bc
00000170: 3db1 9ebb 3a66 923b b074 63bc 4241 3d3c
00000180: f74a 53bb ab49 81bb 5ee4 c6bb dffb 9e3b
00000190: 95ce 0eb9 edc2 a73b 29e5 9e3b 40b2 0aba
000001a0: df76 6e3a 36e8 243a df87 c0b9 bc66 42bb

model.encoder.mlp.2.weight f4 [108, 108]
0.0003952809 0.033360902 0.06563357 -0.077892005 -0.022609884 -0.028527923 -0.09094808 -0.00745629
-0.067937054 0.058758643 -0.056440093 0.012167094 0.021886632 -0.033884317 -0.0017814133 -0.0297641
0.017504042 -0.027553441 0.04663229 0.033082332 0.007940142 -0.017881423 -0.058379963 -0.08178073
0.09497441 -0.05916358 0.09565524 0.038448084 -0.010549828 -0.005029306 -0.016053364 -0.038749706
-0.0028271864 0.0075078304 -0.05354335 0.017019205 0.031321704 0.06772237 -0.09041002 0.01691799
-0.042026367 -0.054613154 0.046648663 -0.047735173 0.014232998 -0.033320874 0.06893683 0.076616585
0.03433092 0.06937283 0.03254775 -0.004702501 -0.0608013 -0.07807395 0.054854315 0.0033698296
-0.010814902 0.058726057 0.012737484 -0.032509603 -0.0105564995 -0.07076462 -0.0055899075 -0.05109542
-0.018135367 -0.03903637 -0.003725005 0.021783527 -0.07961013 0.09349322 -0.051153284 0.027676553
0.034288354 -0.0890685 0.047719464 0.029324058 0.025400022 0.08711984 0.006265961 0.062614016
0.05498755 0.037005424 0.06623355 -0.07507273 0.04270097 0.08336763 0.0048863464 -0.08431701
0.02459727 -0.06519381 0.004431719 -0.050327376 0.048575874 0.09454451 -0.060639 -0.016629513
-0.06186171 -0.039813094 0.03691028 0.060182266 0.047923688 0.09297675 -0.0762066 -0.06760032
0.08014754 0.032084405 0.05534453 0.060267784 0.013292964 -0.017973086 -0.06478071 -0.09971112
-0.047496974 -0.052664056 -0.056349404 0.083988644 0.022756493 0.06424529 -0.06436245 -0.044698622
-0.08481271 -0.073911816 0.009208949 0.06540268 -0.072295286 -0.014428676 -0.069364496 0.03786266
0.068396926 0.015733657 0.012333867 0.026762199 0.074530065 0.099471964 -0.09950502 0.050824367
0.0072192512 0.061542947 -0.014594671 0.049585037 -0.075469576 -0.010535894 -0.01950707 0.078582995
0.0275774 -0.03089148 0.07642041 0.05754428 0.05299138 -0.07074634 -0.0011095296 0.064738415
-0.008520269 -0.014165478 0.06426956 0.013065079 0.011474514 -0.02998167 -0.01618588 0.025323046
0.008233955 0.00639406 0.073914394 -0.01744283 0.06821289 -0.0018080465 0.034279425 -0.06970385
-0.108496 0.052857395 0.075302705 -0.08186633 -0.006124523 0.001300672 0.055171262 0.0619979
-0.005778572 0.058290377 0.07001697 0.018277772 -0.09324583 -0.007632646 0.053971045 0.05438135
-0.018424101 -0.02596099 -0.021928508 0.06485219 0.016150288 -0.02952426 0.019945586 -0.02077323
0.04947184 -0.08356976 -0.00060557155 -0.04677654 -0.023056922 -0.016441045 -0.05327624 -0.058558587
0.046961196 0.08674242 0.09387873 -0.02574396 -0.05812101 0.047143403 -0.044607442 -0.08607687
0.03265299 0.013429316 -0.095970236 -0.018034987 0.028166745 -0.047656357 -0.008358242 0.087943144
-0.04197904 0.0333477 0.065727726 0.011340823 0.0073918467 0.01149069 -0.07216343 -0.042842522
-0.030405732 -0.036716387 0.030599086 0.016560225 0.016093336 -0.02956415 0.070229344 0.039662633
0.02255565 -0.07481734 -0.05081706 0.017043805 -0.07144463 -0.047561087 0.064384006 -0.0023081473
0.07266879 -0.101733945 -0.07876731 0.043500505 -0.0666181 -0.038905386 -0.004378053 -0.048625965
-0.013100269 -0.067496374 -0.106213994 0.017559765 0.043084867 -0.09194741 -0.026200894 0.017534573
00000000: b43d cf39 71a5 083d e56a 863d d885 9fbd
00000010: 5d38 b9bc 64b3 e9bc fd42 babd e553 f4bb
00000020: 9522 8bbd e7ac 703d ba2d 67bd 7e58 473c
00000030: 984b b33c 48ca 0abd 507e e9ba d8d3 f3bc
00000040: a364 8f3c c1b7 e1bc 8001 3f3d 5781 073d
00000050: 5f17 023c 107c 92bc d41f 6fbd a87c a7bd
00000060: f281 c23d 8355 72bd e5e6 c33d bd7b 1d3d
00000070: 30d9 2cbc e0cc a4bb 5882 83bc 03b8 1ebd
00000080: 5148 39bb 3f04 f63b 4650 5bbd dc6b 8b3c
00000090: 304b 003d 07b2 8a3d e328 b9bd 9997 8a3c
000000a0: d723 2cbd 0bb2 5fbd ab12 3f3d f585 43bd
000000b0: 8531 693c 787b 08bd c12e 8d3d 28e9 9c3d
000000c0: 949e 0c3d 5813 8e3d ca50 053d 7017 9abb
000000d0: c90a 79bd 3ce5 9fbd ebae 603d 5cd8 5c3b
000000e0: fd30 31bc bc8a 703d e1b0 503c ca28 05bd
000000f0: 2bf5 2cbc 0bed 90bd 8b2b b7bb 6e49 51bd
00000100: 9f90 94bc 9ae4 1fbd 371f 74bb 5e73 b23c
00000110: a30a a3bd 6079 bf3d 1b86 51bd f0b9 e23c
00000120: f271 0c3d 8c69 b6bd 7c75 433d 0239 f03c
00000130: b513 d03c e36b b23d b152 cd3b c73b 803d
00000140: a03a 613d 0093 173d 75a5 873d bbbf 99bd
00000150: 36e7 2e3d a6bc aa3d a51d a03b 66ae acbd
00000160: 3780 c93c 5584 85bd f437 913b 1424 4ebd
00000170: 7ff7 463d 8da0 c13d 9a60 78bd 9e3a 88bc
00000180: b462 7dbd 0e13 23bd 3c2f 173d ae81 763d
00000190: a14b 443d 986a be3d 3512 9cbd 0972 8abd
000001a0: 6524 a43d f06a 033d f2b0 623d 5adb 763d
000001b0: bbca 593c 4b3c 93bc c0ab 84bd 5835 ccbd
000001c0: 308c 42bd 44b6 57bd a2ce 66bd 3d02 ac3d
000001d0: d36b ba3c 0993 833d 76d0 83bd e715 37bd
000001e0: 49b2 adbd 145f 97bd 22e1 163c d7f1 853d
000001f0: 8d0f 94bd 4166 6cbc f90e 8ebd e015 1b3d
00000200: b013 8c3d dfe3 803c fd13 4a3c 663c db3c
00000210: 38a3 983d f5b7 cb3d 4ac9 cbbd 362d 503d
00000220: 788f ec3b 7514 7c3d 7d1e 6fbc ae19 4b3d
00000230: cb8f 9abd be9e 2cbc 4acd 9fbc 1ff0 a03d
00000240: 00ea e13c 2110 fdbc 4e82 9c3d 8db3 6b3d
00000250: 7d0d 593d 75e3 90bd a36d 91ba 9395 843d
00000260: 9998 0bbc 5216 68bc c29f 833d ea0e 563c
00000270: 9aff 3b3c 1f9c f5bc 4098 84bc 4772 cf3c
00000280: b6e7 063c 4385 d13b 6e60 973d 44e4 8ebc
00000290: 33b3 8b3d f9fb ecba 9568 0c3d e4c0 8ebd
000002a0: 2733 debd ff80 583d 4e38 9a3d 89a9 a7bd
000002b0: 39b0 c8bb 4f7b aa3a 43fb 613d 83f1 7d3d
000002c0: 2d5a bdbb e4c1 6e3d 0f65 8f3d 44bb 953c
000002d0: abf7 bebd 461b fabb be10 5d3d fabe 5e3d
000002e0: 24ee 96bc 24ac d4bc 6aa3 b3bc 3ad1 843d
000002f0: 9c4d 843c dcdc f1bc ed64 a33c 9f2c aabc
00000300: fca2 4a3d 9f26 abbd 38bf 1eba c298 3fbd
00000310: dfe1 bcbc 5faf 86bc 3038 5abd 21db 6fbd
00000320: 625a 403d 03a6 b13d 7e43 c03d ffe4 d2bc
00000330: 4c10 6ebd 7119 413d 4bb6 36bd 1249 b0bd
00000340: 24bf 053d a206 5c3c 0b8c c4bd 1cbe 93bc
00000350: f2bd e63c 5033 43bd 02f1 08bc 891b b43d
00000360: 37f2 2bbd 9997 083d 429c 863d dcce 393c
00000370: 4e37 f23b 7243 3c3c 6cca 93bd a47b 2fbd
00000380: 7115 f9bc ec63 16bd efaa fa3c 4fa9 873c
00000390: 2cd6 833c 8430 f2bc 67d4 8f3d 4975 223d
000003a0: a0c6 b83c d539 99bd 8d25 50bd 739f 8b3c
000003b0: 9051 92bd 6acf 42bd c3db 833d 4944 17bb
000003c0: 60d3 943d e359 d0bd c150 a1bd 962d 323d
000003d0: 126f 88bd 415b 1fbd c575 8fbb 052c 47bd
000003e0: 83a2 56bc 8a3b 8abd b986 d9bd 7fd9 8f3c
000003f0: c279 303d ec4e bcbd 42a3 d6bc aaa4 8f3c

model.encoder.mlp.2.bias f4 [108]
-0.01228089 -0.08740009 0.08197332 -0.025579806 -0.054506965 0.01653057 -0.056617156 -0.055992
-0.021550303 0.046797574 -0.058288272 -0.08019936 0.044335473 0.04789585 0.012084627 0.031132936
0.0176365 -0.080325305 0.010848682 -0.061722677 -0.09744016 0.046617765 0.05212291 -0.048868965
0.04891487 0.088754386 0.06385879 0.085782744 0.059589025 -0.034471635 0.08610656 0.017089652
-0.022261469 0.0005140273 -0.025368659 -0.013987921 0.061681017 0.008067729 0.028073126 -0.014326693
-0.025041025 -0.0014348514 -0.054818146 -0.088636085 -0.051415198 0.08482158 -0.030800011 0.07838663
-0.0146306865 0.06641004 -0.05408844 -0.04972666 0.00508358 0.008788766 -0.05677937 -0.041400667
-0.039518885 -0.082213335 -0.07797194 -0.015746733 -0.05496178 0.040347967 0.07473651 0.047071133
-0.06750791 -0.07322745 -0.019893155 0.075909324 -0.06467121 -0.0473755 -0.073050514 0.032550935
-0.04753715 -0.10238126 0.087233946 -0.054636233 0.024517987 0.09104763 0.019163726 -0.0011645411
0.084076114 0.03594442 0.040005755 0.014175274 -0.002252974 0.013739073 0.08092759 -0.010963888
-0.021119267 -0.08302516 -0.06018877 -0.03162613 0.049127158 0.004134056 0.047382824 -0.0637853
0.06770419 -0.059524793 0.0022402618 0.008016571 -0.040945392 0.025934042 -0.026614027 -0.06803872
-0.061055005 -0.035358984 -0.018807756 0.09030595
00000000: c935 49bc d2fe b2bd a1e1 a73d be8c d1bc
00000010: b242 5fbd 1e6b 873c 64e7 67bd de57 65bd
00000020: 438a b0bc d0ae 3f3d afbf 6ebd 903f a4bd
00000030: 1d99 353d 702e 443d 99fe 453c 800a ff3c
00000040: 6c7a 903c 9881 a4bd acbe 313c ebd0 7cbd
00000050: b58e c7bd 45f2 3e3d d57e 553d d32a 48bd
00000060: f55a 483d dcc4 b53d 66c8 823d ddae af3d
00000070: 9f13 743d 2132 0dbd a358 b03d 99ff 8b3c
00000080: af5d b6bc cabf 063a efd1 cfbc 982d 65bc
00000090: 3ca5 7c3d 822e 043c 9df9 e53c 81ba 6abc
000000a0: d622 cdbc a011 bcba fe88 60bd d686 b5bd
000000b0: be98 52bd f0b6 ad3d 4e50 fcbc 2b89 a03d
000000c0: 8cb5 6fbc fd01 883d d78b 5dbd 2fae 4bbd
000000d0: 2994 a63b c2fe 0f3c 7c91 68bd bf93 29bd
000000e0: 8ede 21bd 775f a8bd c1af 9fbd 4bff 80bc
000000f0: 9a1f 61bd e943 253d 750f 993d a9cd 403d
00000100: 9641 8abd 46f8 95bd f8f6 a2bc 5976 9b3d
00000110: 5772 84bd d00c 42bd 829b 95bd 2154 053d
00000120: 51b6 42bd 44ad d1bd b6a7 b23d 3eca 5fbd
00000130: f2d9 c83c 2e77 ba3d 3ffd 9c3c 84a3 98ba
00000140: 1930 ac3d 753a 133d 13dd 233d 693f 683c
00000150: a2a6 13bb d919 613c 5dbd a53d e1a1 33bc
00000160: 5002 adbc 1809 aabd 8088 76bd 678a 01bd
00000170: 8f39 493d fa76 873b 7e14 423d dea1 82bd
00000180: 7fa8 8a3d 45d0 73bd 5bd1 123b f057 033c
00000190: 5bb6 27bd a173 d43c a905 dabc e257 8bbd
000001a0: d014 7abd 95d4 10bd b912 9abc 53f2 b83d

model.encoder.layer_norm.weight f4 [108]
1.0029923 0.9993325 1.0013357 0.9935692 0.99789107 0.9943755 0.99922985 0.99178946
0.99198335 0.9926921 0.9963247 1.0120788 0.99370503 0.99303854 0.9925321 0.9969487
0.9963486 0.99510103 0.99887896 0.9951965 0.98753333 0.99962986 1.0002581 1.0013151
0.9969146 0.9966913 1.0029633 0.9968354 0.99398226 0.9961681 1.0010287 0.995474
1.0039566 0.99442136 0.99988496 0.9952376 1.0040706 1.00006 1.0014024 0.99937576
0.9968818 0.9914172 0.9992263 0.99396795 0.99336034 0.9951624 0.9897437 0.99770594
0.988822 0.9977182 1.0073836 1.00602 0.99498564 0.99846494 0.99797267 1.0008714
0.99502087 0.99528974 1.0009654 0.99933165 0.99430436 1.0059754 0.99987894 1.0004115
1.0020794 0.9885142 1.0017574 1.000155 0.98576283 0.99519885 0.99090517 0.9914217
0.9902797 1.0165001 1.0169783 0.9995691 1.0012919 0.99478656 1.0044237 0.99056363
0.9885602 0.9957631 1.0036848 0.9888889 1.0020621 0.99886656 0.99514705 1.0013409
0.99981236 0.9943971 1.0051154 1.0005906 0.9977796 1.0026499 0.99668825 1.0000532
1.0008992 1.0012822 1.0008692 0.9924349 0.999081 1.0009996 0.99707156 1.0013087
0.99690026 0.9976174 1.0010955 0.9960734
00000000: 0d62 803f 41d4 7f3f c52b 803f 8d5a 7e3f
00000010: ca75 7f3f 658f 7e3f 87cd 7f3f eae5 7d3f
00000020: 9ff2 7d3f 1221 7e3f 230f 7f3f cc8b 813f
00000030: 7463 7e3f c637 7e3f 9516 7e3f 0838 7f3f
00000040: b410 7f3f f1be 7e3f 88b6 7f3f 33c5 7e3f
00000050: fcce 7c3f bee7 7f3f 7508 803f 182b 803f
00000060: cc35 7f3f 2927 7f3f 1a61 803f 9b30 7f3f
00000070: 9f75 7e3f df04 7f3f b521 803f 62d7 7e3f
00000080: a681 803f 6692 7e3f 76f8 7f3f e4c7 7e3f
00000090: 6385 803f f701 803f f42d 803f 17d7 7f3f
000000a0: a533 7f3f 85cd 7d3f 4bcd 7f3f af74 7e3f
000000b0: dd4c 7e3f f7c2 7e3f d85f 7d3f a869 7f3f
000000c0: 7023 7d3f 766a 7f3f f2f1 803f 43c5 803f
000000d0: 61b7 7e3f 669b 7f3f 237b 7f3f 8e1c 803f
000000e0: b0b9 7e3f 4fcb 7e3f a21f 803f 33d4 7f3f
000000f0: bb8a 7e3f cdc3 803f 11f8 7f3f 7c0d 803f
00000100: 2344 803f 440f 7d3f 9639 803f 1405 803f
00000110: f45a 7c3f 5ac5 7e3f f6ab 7d3f d0cd 7d3f
00000120: f882 7d3f ad1c 823f 582c 823f c3e3 7f3f
00000130: 552a 803f 55aa 7e3f f590 803f 9495 7d3f
00000140: 4812 7d3f 55ea 7e3f be78 803f d327 7d3f
00000150: 9243 803f b8b5 7f3f f5c1 7e3f f02b 803f
00000160: b4f3 7f3f cf90 7e3f 9fa7 803f 5a13 803f
00000170: 7c6e 7f3f d556 803f f626 7f3f be01 803f
00000180: 771d 803f 042a 803f 7b1c 803f 3710 7e3f
00000190: c6c3 7f3f c120 803f 1540 7f3f e22a 803f
000001a0: db34 7f3f db63 7f3f e623 803f abfe 7e3f

model.encoder.layer_norm.bias f4 [108]
-0.0013791972 0.0044519636 -0.0023256864 -0.0078476705 -0.0013197784 -0.001991644 -0.00023945939 -0.0033319108
-0.006882402 -0.0054562157 -0.0051228027 -0.0004312141 -0.0017820721 -0.0038013493 -0.006954719 -0.008459531
-0.0057074456 -0.0041399105 -0.006721287 -0.007385185 -0.0069746673 0.0011819722 -0.004791174 -0.0026866188
-0.0044125514 -0.0049742647 -0.0061889715 -0.002868758 -0.0039489376 -0.0067443075 -0.002819031 0.003443704
8.877259e-05 -0.005892813 -0.004347813 -0.010064428 -0.004246269 -3.4810928e-05 -0.0025327737 -0.004143664
-0.0067755845 -0.009437752 0.00095494546 -0.00080043555 -0.011021715 -0.0050086807 -0.0034174002 -0.00012486211
-0.008206618 -0.00015325545 -0.007938754 -0.010270651 -0.007599141 0.0010341951 -0.0007828573 -0.004184735
-0.004795337 -0.007500822 -0.0060829367 -0.0014354939 -0.0044363774 -0.0012509873 -0.00016733771 0.001866335
0.0040876023 -0.0065352316 -0.00092632795 0.0003144273 -0.00714964 -0.006564476 -0.0043008565 -0.015338894
-0.004544311 0.0011826674 -0.002238811 -0.0063231066 0.005982734 -0.0021443916 0.0022565022 -0.0031238399
-0.005733213 -0.0044537648 -0.0048517715 -0.0037153133 -0.001372538 -0.006988918 -0.0061436556 -0.007265792
-0.0036624451 -0.0020808452 -0.0041116015 -0.0034558661 -0.0029767328 -0.0022539643 -0.008769181 0.0063969744
-0.0017168561 -0.004975539 -0.003396128 -0.005761457 -0.0028273007 -0.00079616136 0.0005190788 -0.0029368417
8.710754e-05 -0.0066787563 0.0013090287 -0.009658505
00000000: 2ec6 b4ba c7e1 913b 8b6a 18bb 8493 00bc
00000010: 6afc acba 3e86 02bb 6417 7bb9 305c 5abb
00000020: c685 e1bb 0eca b2bb 2fdd a7bb 9414 e2b9
00000030: 6b94 e9ba 0f20 79bb 69e4 e3bb d899 0abc
00000040: 8605 bbbb 16a8 87bb 3e3e dcbb 6cff f1bb
00000050: c08b e4bb 68ec 9a3a 48ff 9cbb fc11 30bb
00000060: 2a97 90bb 28ff a2bb dbcc cabb c601 3cbb
00000070: 1766 81bb 5aff dcbb 7ebf 38bb c4af 613b
00000080: 6c2b ba38 8018 c1bb 1978 8ebb 45e5 24bc
00000090: 4924 8bbb f301 12b8 e4fc 25bb 93c7 87bb
000000a0: b905 debb cda0 1abc 4e55 7a3a 52d4 51ba
000000b0: 6c94 34bc dc1f a4bb 76f6 5fbb 6bed 02b9
000000c0: 0d75 06bc 32b3 20b9 8c11 02bc 3c46 28bc
000000d0: 3702 f9bb d48d 873a aa38 4dba 1a20 89bb
000000e0: 3422 9dbb 75c9 f5bb 5f53 c7bb 2f27 bcba
000000f0: 085f 91bb 2bf8 a3ba 6077 2fb9 d09f f43a
00000100: 4bf1 853b 7f25 d6bb d1d4 72ba b8d9 a439
00000110: 8747 eabb d11a d7bb 33ee 8cbb fc4f 7bbc
00000120: 72e8 94bb bc03 9b3a 04b9 12bb 1032 cfbb
00000130: cf0a c43b ec88 0cbb d3e1 133b 56b9 4cbb
00000140: addd bbbb e3f0 91bb 9cfb 9ebb 9d7c 73bb
00000150: bce6 b3ba 4b03 e5bb b850 c9bb e215 eebb
00000160: a205 70bb ca5e 08bb 9dba 86bb d07b 62bb
00000170: 4a15 43bb 3fb7 13bb 9cac 0fbc b69d d13b
00000180: 2208 e1ba d909 a3bb 9391 5ebb 9bca bcbb
00000190: 3c4a 39bb 7cb5 50ba ca12 083a 0778 40bb
000001a0: 81ad b638 78d9 dabb b793 ab3a b53e 1ebc

model.input_embg.class_token f4 [1, 1, 108]
0.35861367 0.090784125 -0.54131156 -0.49553138 0.16647184 -0.50633055 -1.3161844 0.6046811
0.9272823 -0.8627568 -1.4985999 1.7918571 -0.21775003 -1.6096205 0.54122514 1.0574572
-1.8650167 0.39067608 -0.9653435 -1.1028744 0.7491539 -0.9156173 2.0037055 -1.1070118
-0.6529564 0.9733526 0.9305191 -1.654113 -0.20950457 -2.828793 0.8815681 -0.39760777
-1.2698909 -0.6404448 -1.2169733 -0.9626762 0.48776284 -0.79650956 -0.22511396 -1.9601871
-0.065402836 0.05374036 -1.3116957 -0.15483123 -0.28048027 0.41879293 -0.61097735 1.5694746
-0.012158253 -2.2727957 0.3319365 1.2223243 1.2870358 0.24193051 -0.014521973 -0.55888444
-1.187225 -1.5775535 0.60967356 0.08615936 -0.048393678 -2.3345263 1.1952266 -0.2145365
-0.42273682 0.2738891 0.6359173 1.2963599 0.20042525 0.1269782 -0.70901436 -0.35088933
0.16295527 -1.8647306 -0.8932531 -0.5316582 -0.012029848 1.2728727 -0.752309 -1.0471936
-1.3083293 -0.7794373 0.47441968 0.28778327 -0.4108362 1.7948745 -0.18880405 1.1111182
-0.51575834 -0.8133548 -0.43224403 -0.75901824 0.8596993 1.4423877 -0.28871816 -0.6033381
-0.1360466 -2.4271772 0.3781781 0.9377108 2.726035 0.6340506 -2.6366365 0.06552795
-0.3658306 1.7071776 -0.50728303 0.6282584
00000000: 369c b73e 07ed b93d 6593 0abf 4ab6 fdbe
00000010: 9877 2a3e e19e 01bf bb78 a8bf 61cc 1a3f
00000020: 5f62 6d3f a1dd 5cbf 1fd2 bfbf 935b e53f
00000030: ddf9 5ebe 0b08 cebf bb8d 0a3f c25a 873f
00000040: deb8 eebf b206 c83e c020 77bf fd2a 8dbf
00000050: 8dc8 3f3f e565 6abf b63c 0040 90b2 8dbf
00000060: 2728 27bf a32d 793f 8036 6e3f fab9 d3bf
00000070: 5e88 56be f20a 35c0 72ae 613f 3f93 cbbe
00000080: c98b a2bf 31f4 23bf c8c5 9bbf f371 76bf
00000090: 0dbc f93e 0de8 4bbf 4684 66be 69e7 fabf
000000a0: ecf1 85bd da1e 5c3d a5e5 a7bf 148c 1ebe
000000b0: 1c9b 8fbe 076c d63e 0369 1cbf 8be4 c83f
000000c0: 6933 47bc 7c75 11c0 95f3 a93e 1f75 9c3f
000000d0: 97bd a43f a2bc 773e 92ed 6dbc 0d13 0fbf
000000e0: fdf6 97bf 46ed c9bf 9113 1c3f 5274 b03d
000000f0: 7338 46bd e168 15c0 2ffd 983f 75af 5bbe
00000100: f670 d8be 313b 8c3e 7acb 223f 1fef a53f
00000110: 473c 4d3e 9306 023e f781 35bf c4a7 b3be
00000120: bfdd 263e 7eaf eebf 3cac 64bf c01a 08bf
00000130: d718 45bc 7eed a23f 5397 40bf 710a 86bf
00000140: 5677 a7bf 3489 47bf 23e7 f23e 5458 933e
00000150: 1f59 d2be 73be e53f d955 41be 1f39 8e3f
00000160: bd08 04bf 0538 50bf 174f ddbe 054f 42bf
00000170: 4115 5c3f 29a0 b83f ded2 93be 5e74 1abf
00000180: cd4f 0bbe df56 1bc0 8fa0 c13e d10d 703f
00000190: 5c77 2e40 2451 223f a7be 28c0 8533 863d
000001a0: 264e bbbe cc84 da3f 4ddd 01bf 8bd5 203f

model.input_embg.positional_encoding.pe f4 [1, 31, 1]
0.0 0.84147096 0.9092974 0.14112 -0.7568025 -0.9589243 -0.2794155 0.6569866
0.98935825 0.4121185 -0.5440211 -0.9999902 -0.53657293 0.42016703 0.9906074 0.65028787
-0.2879033 -0.96139747 -0.75098723 0.1498772 0.9129453 0.8366556 -0.008851309 -0.8462204
-0.9055784 -0.13235176 0.76255846 0.95637596 0.2709058 -0.6636339 -0.9880316
00000000: 0000 0000 a46a 573f b7c7 683f c381 103e
00000010: cfbd 41bf 107c 75bf 8c0f 8fbe 4630 283f
00000020: 9546 7d3f 3201 d33e f844 0bbf 5cff 7fbf
00000030: d85c 09bf 2220 d73e 7298 7d3f 4479 263f
00000040: 1068 93be 251e 76bf b340 40bf 6979 193e
00000050: c8b6 693f 102f 563f 1505 11bc e6a1 58bf
00000060: fcd3 67bf 3887 07be 0837 433f 0ed5 743f
00000070: 2ab4 8a3e e9e3 29bf a4ef 7cbf

model.input_embg.layer_norm.weight f4 [108]
1.0 1.0 1.0 1.0 1.0 1.0 1.0 1.0
1.0 1.0 1.0 1.0 1.0 1.0 1.0 1.0
1.0 1.0 1.0 1.0 1.0 1.0 1.0 1.0
1.0 1.0 1.0 1.0 1.0 1.0 1.0 1.0
1.0 1.0 1.0 1.0 1.0 1.0 1.0 1.0
1.0 1.0 1.0 1.0 1.0 1.0 1.0 1.0
1.0 1.0 1.0 1.0 1.0 1.0 1.0 1.0
1.0 1.0 1.0 1.0 1.0 1.0 1.0 1.0
1.0 1.0 1.0 1.0 1.0 1.0 1.0 1.0
1.0 1.0 1.0 1.0 1.0 1.0 1.0 1.0
1.0 1.0 1.0 1.0 1.0 1.0 1.0 1.0
1.0 1.0 1.0 1.0 1.0 1.0 1.0 1.0
1.0 1.0 1.0 1.0 1.0 1.0 1.0 1.0
1.0 1.0 1.0 1.0
00000000: 0000 803f 0000 803f 0000 803f 0000 803f
00000010: 0000 803f 0000 803f 0000 803f 0000 803f
00000020: 0000 803f 0000 803f 0000 803f 0000 803f
00000030: 0000 803f 0000 803f 0000 803f 0000 803f
00000040: 0000 803f 0000 803f 0000 803f 0000 803f
00000050: 0000 803f 0000 803f 0000 803f 0000 803f
00000060: 0000 803f 0000 803f 0000 803f 0000 803f
00000070: 0000 803f 0000 803f 0000 803f 0000 803f
00000080: 0000 803f 0000 803f 0000 803f 0000 803f
00000090: 0000 803f 0000 803f 0000 803f 0000 803f
000000a0: 0000 803f 0000 803f 0000 803f 0000 803f
000000b0: 0000 803f 0000 803f 0000 803f 0000 803f
000000c0: 0000 803f 0000 803f 0000 803f 0000 803f
000000d0: 0000 803f 0000 803f 0000 803f 0000 803f
000000e0: 0000 803f 0000 803f 0000 803f 0000 803f
000000f0: 0000 803f 0000 803f 0000 803f 0000 803f
00000100: 0000 803f 0000 803f 0000 803f 0000 803f
00000110: 0000 803f 0000 803f 0000 803f 0000 803f
00000120: 0000 803f 0000 803f 0000 803f 0000 803f
00000130: 0000 803f 0000 803f 0000 803f 0000 803f
00000140: 0000 803f 0000 803f 0000 803f 0000 803f
00000150: 0000 803f 0000 803f 0000 803f 0000 803f
00000160: 0000 803f 0000 803f 0000 803f 0000 803f
00000170: 0000 803f 0000 803f 0000 803f 0000 803f
00000180: 0000 803f 0000 803f 0000 803f 0000 803f
00000190: 0000 803f 0000 803f 0000 803f 0000 803f
000001a0: 0000 803f 0000 803f 0000 803f 0000 803f

model.input_embg.layer_norm.bias f4 [108]
0.0 0.0 0.0 0.0 0.0 0.0 0.0 0.0
0.0 0.0 0.0 0.0 0.0 0.0 0.0 0.0
0.0 0.0 0.0 0.0 0.0 0.0 0.0 0.0
0.0 0.0 0.0 0.0 0.0 0.0 0.0 0.0
0.0 0.0 0.0 0.0 0.0 0.0 0.0 0.0
0.0 0.0 0.0 0.0 0.0 0.0 0.0 0.0
0.0 0.0 0.0 0.0 0.0 0.0 0.0 0.0
0.0 0.0 0.0 0.0 0.0 0.0 0.0 0.0
0.0 0.0 0.0 0.0 0.0 0.0 0.0 0.0
0.0 0.0 0.0 0.0 0.0 0.0 0.0 0.0
0.0 0.0 0.0 0.0 0.0 0.0 0.0 0.0
0.0 0.0 0.0 0.0 0.0 0.0 0.0 0.0
0.0 0.0 0.0 0.0 0.0 0.0 0.0 0.0
0.0 0.0 0.0 0.0
00000000: 0000 0000 0000 0000 0000 0000 0000 0000
00000010: 0000 0000 0000 0000 0000 0000 0000 0000
00000020: 0000 0000 0000 0000 0000 0000 0000 0000
00000030: 0000 0000 0000 0000 0000 0000 0000 0000
00000040: 0000 0000 0000 0000 0000 0000 0000 0000
00000050: 0000 0000 0000 0000 0000 0000 0000 0000
00000060: 0000 0000 0000 0000 0000 0000 0000 0000
00000070: 0000 0000 0000 0000 0000 0000 0000 0000
00000080: 0000 0000 0000 0000 0000 0000 0000 0000
00000090: 0000 0000 0000 0000 0000 0000 0000 0000
000000a0: 0000 0000 0000 0000 0000 0000 0000 0000
000000b0: 0000 0000 0000 0000 0000 0000 0000 0000
000000c0: 0000 0000 0000 0000 0000 0000 0000 0000
000000d0: 0000 0000 0000 0000 0000 0000 0000 0000
000000e0: 0000 0000 0000 0000 0000 0000 0000 0000
000000f0: 0000 0000 0000 0000 0000 0000 0000 0000
00000100: 0000 0000 0000 0000 0000 0000 0000 0000
00000110: 0000 0000 0000 0000 0000 0000 0000 0000
00000120: 0000 0000 0000 0000 0000 0000 0000 0000
00000130: 0000 0000 0000 0000 0000 0000 0000 0000
00000140: 0000 0000 0000 0000 0000 0000 0000 0000
00000150: 0000 0000 0000 0000 0000 0000 0000 0000
00000160: 0000 0000 0000 0000 0000 0000 0000 0000
00000170: 0000 0000 0000 0000 0000 0000 0000 0000
00000180: 0000 0000 0000 0000 0000 0000 0000 0000
00000190: 0000 0000 0000 0000 0000 0000 0000 0000
000001a0: 0000 0000 0000 0000 0000 0000 0000 0000
