training/lightning_logs/version_0/checkpoints/epoch=207-step=82992.ckpt (torch, 580497 bytes, 22 tensors)

model.encoder.norm.weight f4 [108]
00000000: 8fd2 833f d85e 843f 6332 853f f53c 883f
00000010: b1ec 7a3f d0c9 823f deee 933f f50c 833f
00000020: 9349 763f 7ba7 833f c84c 873f f1ab 863f
00000030: 0052 843f baca 7a3f 28d3 813f 075e 813f
00000040: 44bf 7b3f 8b52 803f 6917 833f 90dc 843f
00000050: d5ed 843f ce92 7d3f 073d 8d3f 8deb 793f
00000060: 068d 853f bf4a 813f d324 813f 5f65 823f
00000070: 57ed 863f 843f 883f ed85 8b3f 34d1 8c3f
00000080: b004 893f 1369 823f 34d8 7c3f 0ffb 803f
00000090: 5d17 813f 9803 873f 52fc 843f cf46 803f
000000a0: 87ab 853f d325 883f fd97 823f e212 833f
000000b0: 66d2 833f 10eb 803f 1e74 853f 52b4 803f
000000c0: d071 803f 4e1f 813f 7d58 883f 1f49 7a3f
000000d0: f490 853f e51f 823f ec7d 803f 2a58 7f3f
000000e0: a3c8 803f 1d09 823f 0339 863f 4809 873f
000000f0: 8f90 873f 7b41 873f cf45 833f b205 843f
00000100: 2c3d 843f 4a57 803f 1b55 7f3f e0db 823f
00000110: 5b00 833f a633 863f 7a8d 883f 9b25 843f
00000120: 4826 7f3f 784a 843f f5c1 773f bac9 843f
00000130: 7f93 853f d96a 813f c482 7c3f d3f3 893f
00000140: 0f0f 7c3f 363c 843f c725 833f 3935 853f
00000150: cc0f 7e3f afce 833f f0fa 853f 3869 813f
00000160: 0421 823f 2a46 7c3f ac51 7a3f 0f72 823f
00000170: 1af5 8a3f 9eb9 7e3f ae23 903f caee 893f
00000180: 1a8c 7e3f 8f36 803f 843d 893f 9642 883f
00000190: f969 833f 0920 813f a8d3 8d3f 1ce2 823f
000001a0: 4ce6 823f f19b 793f a452 873f 6c0a 873f
1.0298632 1.0341444 1.0406002 1.0643603 0.9801741 1.0217838 1.1557271 1.0238329
0.96206015 1.0285486 1.0570307 1.0521222 1.0337524 0.97965586 1.0142565 1.010682
0.98338723 1.002519 1.0241519 1.037981 1.038508 0.9905213 1.1034249 0.97625047
1.0433662 1.0100936 1.0089363 1.0187186 1.054118 1.0644383 1.0900246 1.1001344
1.0704556 1.0188316 0.987674 1.0076617 1.0085255 1.0547972 1.0389502 1.0021609
1.0442971 1.0636543 1.0202633 1.0240138 1.0298584 1.0071735 1.0426061 1.0055029
1.0034733 1.0087678 1.0652004 0.97767824 1.0434861 1.0165983 1.0038428 0.997439
1.006123 1.0159031 1.0486149 1.0549707 1.0590991 1.0566858 1.0255679 1.0314238
1.0331168 1.0026639 0.99739236 1.022335 1.0234483 1.0484512 1.0668175 1.0323976
0.9966779 1.0335226 0.9678033 1.0374062 1.0435637 1.0110732 0.9863703 1.0777534
0.9846048 1.0330875 1.0245904 1.0406867 0.99242854 1.029745 1.0467205 1.0110235
1.0166326 0.9854456 0.9778087 1.0191058 1.0856049 0.9950198 1.1260889 1.0775998
0.9943253 1.001665 1.0721898 1.064532 1.0266715 1.0087901 1.1080217 1.0225253
1.0226531 0.9750357 1.0572095 1.0550056

model.encoder.norm.bias f4 [108]
00000000: 1bd4 dc3c 029c 15bc 8395 18bc f13e 0aba
00000010: 11ce a93c 2011 66bc 3a59 f4ba d375 003d
00000020: 384f cc3c 9e64 103d 8d62 923b da74 75bc
00000030: 9a7b c3ba 332f b8bc 1e06 eab9 4523 bcbb
00000040: 4165 98bb 1129 983c 3b83 08bb 5ac9 b63c
00000050: 2305 433a 8287 613c 8502 10bc bba6 ccbc
00000060: a4d2 7b3c 3327 67ba 2a90 ea3b 8bf5 3a3c
00000070: d1dd a1ba 9339 d1bc b79c c2bc 7128 603c
00000080: a7bc 28bd 5446 f83c 3dfb f3bc 97cd 063c
00000090: 788c 843b 87d6 643c 1065 33b9 071b 2a3c
000000a0: 6f92 c2bc 053c 35bc 6ce2 5a3c 5603 563b
000000b0: eabc d2bc 0afa b0bb 171d bc3b 242e 723c
000000c0: f956 a0bb 667b f33c 5752 0fbb ac9b 87bb
000000d0: bdce 743c c28f 23bc 8611 efbc e716 dc3c
000000e0: 30ad 4fbb c8b1 c2bc 48b8 b43c 18fc d43c
000000f0: e8ef 923c a5de 843b e531 a0bc 6a7b f43c
00000100: c930 66bc bbba 9c3c 6077 9dbb 69cc 753c
00000110: fe57 efbb 659d 183c 488f a7bb b749 48bb
00000120: 9308 c4ba c43c 6cbc 3164 8eba e866 d3bc
00000130: b076 e8bc c21e 35bc 9311 31bc 0461 403c
00000140: 64f0 e03c a253 81bc 6c58 ed3c 10b7 dfbb
00000150: 474f 4dbb 404e 193c 9eea bebc c210 313b
00000160: 28d4 0b3c c420 993c 338b 22bb 8479 acbc
00000170: be85 5c3c e203 9d3c 4e07 36bc ea92 333b
00000180: dfeb a0bb a67d 3aba 4fd4 21bc 395d 003d
00000190: 4c0b 023d cb8d 2a3b d54c 0f3c 9778 7cbc
000001a0: da8c 21b9 8d76 bd3b 97fa 96bb c9ad 173d
0.026956609 -0.009131433 -0.00931299 -0.0005273661 0.020728143 -0.014042169 -0.0018642314 0.031362366
0.024940118 0.035252206 0.0044673146 -0.014981473 -0.0014914155 -0.022483444 -0.00044636516 -0.005741509
-0.0046507423 0.01857427 -0.0020830173 0.022312809 0.0007439425 0.013765218 -0.008789663 -0.024981847
0.015370045 -0.0008817792 0.007158299 0.011411081 -0.0012349432 -0.025540149 -0.023756368 0.013681517
-0.041195538 0.030306973 -0.029782886 0.008227727 0.0040450655 0.013967163 -0.00017108419 0.01038242
-0.023751466 -0.011061673 0.013359647 0.0032655797 -0.025724847 -0.0054009007 0.0057407725 0.014781509
-0.0048931804 0.029721927 -0.0021869147 -0.0041384306 0.014941868 -0.009983005 -0.02918316 0.02686639
-0.003168892 -0.023766413 0.022060528 0.025999114 0.017936662 0.0040548616 -0.019555042 0.029844005
-0.014049717 0.019132009 -0.0048054904 0.015002348 -0.0073041907 0.0093148695 -0.005113516 -0.0030561516
-0.0014956169 -0.0144187845 -0.00108636 -0.025805905 -0.028376907 -0.0110546965 -0.010807413 0.01174188
0.027458377 -0.01578695 0.028972827 -0.0068272427 -0.003132777 0.009357035 -0.023305234 0.0027018045
0.008534469 0.018692382 -0.0024802207 -0.021054037 0.013459621 0.01916689 -0.01111014 0.00274008
-0.0049109305 -0.000711406 -0.0098772785 0.031338904 0.031749055 0.0026024457 0.0087463455 -0.01540961
-0.00015406628 0.0057819546 -0.0046075094 0.03703097

model.encoder.attn_blck.in_proj_weight f4 [324, 108]
00000000: a59d 283d ecfc ca3d 0f85 c03d 6afb 993d
00000010: 0bd0 333d 53c8 ee3d 06be 963d 9f7e 083c
00000020: 63c8 b63b 52d7 d4bd 663a 653d d985 0c3e
00000030: a80c 31bd de4a 3d3d 83c4 a3bd 4ffb 933c
00000040: 2cf4 423d bae7 ce3d 8651 a43d 4d71 c73c
00000050: 5a07 ce3d 26d2 24bd 4be6 aa3d 4c6c 343c
00000060: db9a 2fbd f625 21bd c333 5abd 59af 863d
00000070: 2ede b43d 1112 f7ba a467 2d3d a112 40bd
00000080: 3482 043d d6ac d83d ad2b eabc 921c d23d
00000090: 3568 cc3d a9cd 08bd 87af a33c aef8 1b3d
000000a0: e2cd 093d 6202 c0bd f749 1bbd 72e2 abbd
000000b0: 1f09 b63d e6cd e7bb 530f e83d c64d 783d
000000c0: 1ec0 c6bc 8796 863d 77ec 713c 8067 bb3d
000000d0: a210 b4bd 6d27 ce3a 9213 f83b d0ce de3c
000000e0: a837 e83d f9bb 933d aa7c c1bd 8da6 babc
000000f0: db91 543d daa4 2abd d7a9 84bd 63e0 d03d
00000100: 7d4d 62bc ce86 393c 8508 c9bd 3a30 ac3a
00000110: 7b27 143d 4c90 813c 2668 9bbc 080c ab3c
00000120: c5b1 2fbd 15d0 da3d eb5a b7bd 708e d0bd
00000130: a347 ca3d f994 de3d 2f32 5b3c 1171 56bd
00000140: 4f2b 31bd 1d60 2d3c b548 d1bd 002c 073d
00000150: 9a1a e33d 6501 20be e3c6 bbbd fb54 823d
00000160: e214 dc3d 8309 053e 7375 303d 8228 ea3a
00000170: c4ae d63d be97 bbbd 28a9 c93d c200 0d3d
00000180: be35 dbbd 9398 c4ba c544 e8bb 8958 cc3d
00000190: 534f 13bd e526 ae3d 1182 dd3d c942 9a3b
000001a0: 4cd2 f9ba 3c0c 00be 2fe6 083c 5e37 b5bd
000001b0: ed8a 8fbd 8597 763d 67fb e43d 8709 313d
000001c0: a78b d53d 992a d6bd dc5c a33d 4e5b c8bd
000001d0: 87eb ddbc 1eb8 993c 33cb 76bd 736b da3d
000001e0: 71db acbd 3ead f83c fe0e 7e3d 7a6c 5a3d
000001f0: 40dd 62bd 9258 b33c 3f71 ac3c 03fd d5bd
00000200: 44da e1bd 4e17 4f3d 578f 8f3d ab30 a1bd
00000210: 19bd cfbd bf0d 363d fb96 c63d 5856 5d3d
00000220: 0543 c33d 4a8f 0cbd dc9d 8e3c 1f51 7dbd
00000230: d4b4 853d ce81 9ebc e941 a7bd fcd1 bf3b
00000240: 9ef9 da3d 543e 95bd 0fd7 df3d be7e afbd
00000250: cfe2 9dbd 6b31 c23c 6258 cf3d f4fa bf3d
00000260: d132 9d3c 4491 663d 0a4d 77bd 476a dabd
00000270: a29a 373d 4714 a53d 45a4 2fbd cf8b 6ebd
00000280: 7dea 963d d8d4 a9bd 146a 803d bd0e 08bd
00000290: 37b1 4f3d 3763 9cbb 5480 6c3d f424 be3d
000002a0: 19c4 de3c 6af2 8fbd c453 85bd fbdd 0c3d
000002b0: 908e 8ebd aa1a 913c bdb1 ca3d d852 8e3b
000002c0: 3c60 99bd cd62 b53d c191 9bbc 8916 ebbd
000002d0: 7869 97bd 1487 04bd bd46 4c3c 7792 7c3d
000002e0: 9e5b 013c 00ba 333d ecfb d0bd 160b 08bd
000002f0: ade1 2a3d afe9 a73a e2b4 283d fc8e 8ebc
00000300: fb14 703d 8e2b 563d 6548 5b3c de4e 483d
00000310: 88bb dabc 5730 2dbd 49a3 98bc 7d10 313d
00000320: 23de cbbd c619 683d e102 1f3d fe5a 27bd
00000330: 09e5 78bd 370b 993d b151 babd f775 c13d
00000340: 767f c53d 33e2 9dbd a127 32bd b7c3 d33d
00000350: 80b6 9dbc de13 95bd c1c5 71bd 202a bdbd
00000360: 2cfa 0b3d d3d7 abbc 00e0 3dbd 950b 2dbd
00000370: b347 f73b 3c86 d83d 6661 ca3d 9620 aabd
00000380: ec4f c5bd d7be a2bd 8560 55bd 729b 96bb
00000390: 6c8f 083e 4b1e bcbc bf26 e2bc e17c b6bd
000003a0: 5002 85bd 3b1b 2bbd 25cc f9bd 09e3 b1bd
000003b0: 29ca a2bd c838 8c3c 2b0d 87bb 2f35 04bd
000003c0: d9cd c03d edd6 b7bc 55f1 933d d4f4 98bd
000003d0: 64d9 83bd 8d4b 5b3d b47d b33d fdfb aa3d
000003e0: 6040 25bd 41ac 563c ea20 aa3d 94ae 373c
000003f0: ff0e e9bd 4a32 813d 6493 883d 3c6d 57bd
0.041165967 0.09911522 0.09400379 0.075186566 0.043899577 0.116593026 0.07360463 0.00833097
0.005578087 -0.103926316 0.055963896 0.13722934 -0.04322496 0.046213977 -0.07996466 0.01806417
0.04759614 0.10102792 0.08023362 0.024346018 0.10059996 -0.040239476 0.08344706 0.011012148
-0.04287229 -0.039342843 -0.05327202 0.06576414 0.0883144 -0.0018849989 0.042335168 -0.046892766
0.032350734 0.10579841 -0.02858528 0.102593556 0.099808134 -0.033399258 0.019981159 0.038078956
0.03364361 -0.093754545 -0.037912335 -0.083928004 0.088884585 -0.0070741056 0.11331048 0.060621046
-0.02426153 0.065716796 0.01476585 0.091506004 -0.08792235 0.0015728303 0.0075706923 0.027198225
0.113387406 0.07213587 -0.09447606 -0.022784496 0.05189691 -0.04166112 -0.06477707 0.10199048
-0.01381242 0.011323644 -0.09816078 0.0013136931 0.036170464 0.015815876 -0.01897056 0.02087976
-0.042894144 0.1068422 -0.08952888 -0.10183418 0.09876945 0.10868258 0.013378664 -0.052353922
-0.043254193 0.010581997 -0.10218946 0.033000946 0.11089058 -0.15625532 -0.09168794 0.06363865
0.107461706 0.1299191 0.04308076 0.0017864855 0.10482553 -0.09159802 0.09846717 0.03442455
-0.1070361 -0.0014999084 -0.007088276 0.09977824 -0.03596432 0.08503512 0.10815824 0.0047076684
-0.0019059866 -0.12504667 0.008355661 -0.08848451 -0.0700892 0.060203094 0.11180764 0.043221977
0.10427027 -0.104573436 0.07976696 -0.0978304 -0.027089847 0.018764552 -0.06025238 0.106650256
-0.084402926 0.030356046 0.062026016 0.053326108 -0.05538678 0.02189282 0.021050094 -0.10448649
-0.11027959 0.050559334 0.07009762 -0.07870611 -0.101434894 0.044446703 0.09696766 0.054037422
0.09534267 -0.03431634 0.017409258 -0.06184494 0.06528631 -0.019349005 -0.08166868 0.0058538895
0.10692142 -0.07287279 0.10929691 -0.08569096 -0.07709276 0.023705205 0.101242796 0.093740374
0.01918927 0.05629088 -0.060376205 -0.10664802 0.044825204 0.08060508 -0.04288127 -0.0582388
0.07368944 -0.0829255 0.06270233 -0.03321718 0.050706115 -0.0047725695 0.05773957 0.09284392
0.027193116 -0.07028659 -0.06510118 0.034391385 -0.069607854 0.01771291 0.09897182 0.004343372
-0.074890584 0.088567354 -0.0189904 -0.114789076 -0.073931634 -0.032355383 0.012468037 0.061663117
0.007895378 0.043878555 -0.102043 -0.033213697 0.041719127 0.0012810732 0.04118813 -0.017402165
0.05861376 0.05228763 0.013383959 0.04890334 -0.02670075 -0.04228243 -0.018632548 0.043228615
-0.099544786 0.056665204 0.038821105 -0.04085826 -0.0607653 0.07472842 -0.09097613 0.09446328
0.09643452 -0.0770916 -0.043494824 0.10340064 -0.019252062 -0.0727918 -0.059026483 -0.0923655
0.03417413 -0.020976936 -0.0463562 -0.042247374 0.007546389 0.10572478 0.098818585 -0.083069965
-0.096343845 -0.07946556 -0.052094 -0.0045961672 0.13335961 -0.022963664 -0.027606366 -0.089105375
-0.06494582 -0.041774016 -0.121971406 -0.08685882 -0.07948715 0.01711692 -0.004121443 -0.032277282
0.09414262 -0.022441352 0.07223765 -0.07468572 -0.06437948 0.053538848 0.0876421 0.08348844
-0.040344596 0.013102592 0.08307059 0.011211056 -0.113798134 0.0630842 0.066687375 -0.05259441

model.encoder.attn_blck.in_proj_bias f4 [324]
00000000: 420d 0d3d c87c ca3b c796 75bc 8c68 8dbc
00000010: 9171 99ba 7bf9 babb 4e5d 4ebc c469 b13c
00000020: 9200 b439 cfbf ff3b e1bc 96bc 5a5d ddbb
00000030: 540c 10bc 958a dc3c 90ef d6bc c9b5 4bbb
00000040: a033 8f3c 5dec 1abc 54a7 36bc 7075 243c
00000050: ea6c 8dbc 2a79 3abc 3b09 c2bc 8cc5 9abc
00000060: 2871 40bc 174f 473b 202b eabc 2f4d 7f3b
00000070: 4692 433c 1035 5a3c cb80 493c 0949 b7ba
00000080: 4339 ff3b 6bc4 ee3b 248d 4b3b a6c7 f4ba
00000090: 54b3 313c bd9c aebb 52b3 5e3b dfcb 58bc
000000a0: b5a8 8dbc 9972 69bb f1d2 123c a2b8 9eba
000000b0: 75b7 d9bb 85ba 04bc d692 583d 2357 a5bc
000000c0: 2013 32bc bf1b 1b3d 1b14 74bc a933 7f3b
000000d0: d214 45bc 3df9 c3bc ae45 3e3c d65b ae3b
000000e0: cb53 c3bc 822c 18bc 95e6 edbb f1f0 163c
000000f0: 8682 c2bc c59d a4bc c972 b1bc 3bd7 09bc
00000100: 7f58 853c 1b6b f3bb af8d 4abc ddd5 973c
00000110: f08e 05bc d1e1 763b c926 183b 508f c83b
00000120: b2f2 1d3d d505 8ebc 295f 96bc cbcd 0b38
00000130: 9dfa 0b3d 4673 ef3c e374 5d3b d753 45bd
00000140: f512 163d b270 76bc b13f 8fb9 ef22 ea3c
00000150: d0af 05bd b565 c9bc 9527 8e3c 62e1 8b3b
00000160: 8480 30bc 93fa 7c3c 493e 413d 8849 fc3b
00000170: efb2 70bc 56f4 d03c b489 923c 395b 4ebc
00000180: 7d5a 223b 4c7d 773c fff3 debc e25c aabc
00000190: 2054 023b 0b9a 52bc 9656 14bc 6f85 8d3b
000001a0: af82 633a 76c5 413c 77c8 5cbc f18b 2b3b
000001b0: 71b9 6a2e f036 f02d 49dc af2d c4fa 9c2d
000001c0: 9eab c9ae 122d 1f2e bdf7 572e 7841 bd2e
000001d0: 0ec7 f02d b910 faae 7a4c 132e 4219 6c2d
000001e0: 4cda f72d b65e 01af fb54 f02e dd81 11ae
000001f0: 79a6 03ae 1f10 b22e 1fbb 4d2e 3575 782d
00000200: aa57 f32d 3404 caae 0a5d 08af 7937 32ad
00000210: a1bc 2aad d884 9b2e ae16 7aad 991d f12d
00000220: 6ffc 8d2e 4318 9e2d 42db 6dad e2b2 0e2d
00000230: d46e 09ae 7f01 84ac 58cc 522e 7057 b12d
00000240: 5e38 6fad 8224 b52d 6792 12ae ae1c 26ae
00000250: e405 62ae 47f8 dcaa 289a 55aa b214 82ae
00000260: 3281 cf2e 728e 9b2d 08af 44af bef7 112e
00000270: d16d 7e2e 2514 99ae 20e5 90ad 1920 332e
00000280: 3a93 16af 1653 a62e 8a32 c2ad 7244 85ae
00000290: 5d5a 69ae 5072 61ad b650 d7ac 4fdf b32d
000002a0: d4f7 bf2d e06b fbad df38 7a2d 427e e42d
000002b0: bb6f 8b2c 7486 83ac e37f f2ae 7a15 6cae
000002c0: 9f1d c1ad ace6 29ae 15d3 11ad b7b4 b5ad
000002d0: 4980 8fae 2dcd b12c 22a5 0faf 93c4 de2e
000002e0: 0d96 332f 1864 bb2d 2659 812e e581 112e
000002f0: e1b6 152f 8bed 052e 23f4 56ae 87b5 aaad
00000300: 1562 46ae de7e ad2d 7fd8 d1ad 1278 3bad
00000310: e5db bcad 8381 8bac 8f13 1faf a3f7 16ad
00000320: 2626 a12e 1642 042c aea8 c3ae e032 a52e
00000330: 9866 182f b855 bdae 167f f22e 28c8 d4ae
00000340: 60c7 032f d19e 8d2d 4478 eaac 01ef 582e
00000350: c5ba 792e f075 9ead 77a0 86ae 2329 80ae
00000360: bd52 7abc d484 3a3c fd44 6dbc 097d abbc
00000370: 0d57 0c3c 5cb0 353c 7fa8 813c adf5 bebb
00000380: f7b9 8cbc 821f 623c 567d 00bc ce7e 043c
00000390: 6ec0 9a3c 1bbe 22bc 0e57 5e3c 29ab 01bb
000003a0: ebe6 0abc f1c8 63bc 5ab4 213c 7733 d4bc
000003b0: 5845 bbba eaf5 91b9 ff7f 95bb 8619 c5bc
000003c0: 589e 933c cb41 c93b 5e6c 9fbc 1ea1 4f3c
000003d0: 6421 833c c907 2bbb 315e 173c b511 f5bb
000003e0: 2831 41bc 6bfb b23c be55 c2bb 71c5 f73b
000003f0: 3c9b 8039 9aee b0bb 63af 0b3c 2d64 843c
0.03443647 0.006179426 -0.014989561 -0.017261766 -0.0011706819 -0.00570601 -0.012595488 0.021656878
0.000343327 0.007804848 -0.018400611 -0.006755513 -0.008792002 0.02692155 -0.02623728 -0.0031083694
0.017480671 -0.009455767 -0.011148293 0.010037765 -0.017263848 -0.011381427 -0.023686042 -0.018893026
-0.011745729 0.0030412131 -0.028585017 0.0038955917 0.01193673 0.013318315 0.012298773 -0.0013983558
0.0077888086 0.0072865984 0.0031059468 -0.0018675223 0.010845978 -0.0053287433 0.0033981395 -0.0132322
-0.01729236 -0.0035621284 0.008961425 -0.0012109468 -0.0066441842 -0.00810111 0.05287441 -0.020183152
-0.010868818 0.037868258 -0.014897372 0.0038940704 -0.01202889 -0.023922557 0.011613293 0.0053210063
-0.023843667 -0.009287955 -0.0072601535 0.009212718 -0.023743879 -0.020094762 -0.02166118 -0.008413131
0.01627755 -0.0074285395 -0.012362882 0.018534595 -0.008151755 0.0037671218 0.0023216477 0.0061206
0.03856153 -0.017336765 -0.018355923 3.3331842e-05 0.03417455 0.029229771 0.0033791594 -0.04817566
0.036639173 -0.015041517 -0.0002732254 0.02858111 -0.03263837 -0.02458463 0.017352859 0.004268811
-0.010772828 0.015440601 0.04717854 0.0076991953 -0.014691099 0.025507133 0.017887928 -0.012594991
0.0024773173 0.015105557 -0.027215956 -0.020796243 0.0019886568 -0.0128541095 -0.009053847 0.004318885
0.0008678836 0.0118268635 -0.013475529 0.002617594 5.3370145e-11 2.7309238e-11 1.9993023e-11 1.7846509e-11
-9.170907e-11 3.6192445e-11 4.9105376e-11 8.6063545e-11 2.7373239e-11 -1.1371654e-10 3.3491855e-11 1.3420655e-11
2.8177592e-11 -1.176613e-10 1.0929032e-10 -3.3084525e-11 -2.993381e-11 8.0973665e-11 4.67778e-11 1.4123193e-11
2.7664832e-11 -9.186643e-11 -1.2402182e-10 -1.0130446e-11 -9.705265e-12 7.072182e-11 -1.4215891e-11 2.7411672e-11
6.456779e-11 1.7973295e-11 -1.3520575e-11 8.1114854e-12 -3.124863e-11 -3.7518317e-12 4.7929966e-11 2.01614e-11
-1.3598093e-11 2.059353e-11 -3.3326588e-11 -3.7769503e-11 -5.1391683e-11 -3.9252127e-13 -1.8971684e-13 -5.915392e-11
9.43622e-11 1.7684718e-11 -1.788828e-10 3.3189222e-11 5.785045e-11 -6.961213e-11 -1.6472657e-11 4.0728396e-11
-1.3694726e-10 7.563565e-11 -2.207769e-11 -6.060298e-11 -5.3058325e-11 -1.2815152e-11 -6.1196282e-12 2.0449113e-11
2.1824244e-11 -2.8583302e-11 1.4223483e-11 2.5976669e-11 3.963022e-12 -3.7381712e-12 -1.1027603e-10 -5.3679262e-11
-2.1954714e-11 -3.863103e-11 -8.289165e-12 -2.0657571e-11 -6.525675e-11 5.0534217e-12 -1.3064441e-10 1.013031e-10
1.6333264e-10 2.130389e-11 5.882077e-11 3.3084552e-11 1.3616443e-10 3.045168e-11 -4.8874804e-11 -1.9407377e-11
-4.5107102e-11 1.9724163e-11 -2.3856693e-11 -1.065638e-11 -2.1470778e-11 -3.9649963e-12 -1.4467914e-10 -8.581499e-12
7.328209e-11 1.8795013e-12 -8.897537e-11 7.5123685e-11 1.3860768e-10 -8.6099516e-11 1.1027461e-10 -9.676199e-11
1.1985213e-10 1.6100373e-11 -6.664032e-12 4.9324992e-11 5.678193e-11 -1.8014895e-11 -6.122119e-11 -5.8280734e-11
-0.015278515 0.011384208 -0.01448178 -0.020933645 0.008565676 0.011089411 0.015827416 -0.0058276267
-0.017178519 0.013801457 -0.007842382 0.008086873 0.018890586 -0.00993302 0.01357056 -0.0019785857
-0.008477907 -0.013902889 0.009869659 -0.025903447 -0.0014287634 -0.00027839775 -0.0045623775 -0.024060022
0.01801984 0.0061418763 -0.019460853 0.012672691 0.016007133 -0.002609717 0.009238766 -0.0074789175
-0.011791505 0.021848401 -0.0059306314 0.0075613786 0.0002452972 -0.0053995373 0.008525702 0.016161049

model.encoder.attn_blck.out_proj.weight f4 [108, 108]
00000000: 021f 8bbd f361 5bbc 574b 2e3c 61aa 1dbd
00000010: 62b6 403d 5590 a6bd 7bc9 0abd 4a04 c3bc
00000020: 13a2 3e3d 74ee 4c3c fdf3 8dbd 4df5 623c
00000030: 7c50 dbbd 400b 2a3d 2ef3 473d f970 dabd
00000040: e4ed 2d3d 5db8 633d fa79 793d c0cb 833d
00000050: 2cd0 c8bb 5bec cbbd db55 dcbc 091e 37bd
00000060: 6a3f a2bd 217d a3bc 42c8 f73c 36a7 c1bd
00000070: 23c8 80bc 5f7f 013d 6329 84bc 3040 a3bd
00000080: 0833 2b3d 6fd4 f63d a49d f73c 19a6 26bd
00000090: de0e 85bd 150f bbbc 14d6 853d 6e77 f03d
000000a0: 9ca9 8dbd f72d 9e3c 7167 ffbd 4145 c5bc
000000b0: e363 193d 04fb 833c 144b ee3b 314f c13d
000000c0: b246 893d 924d 993d b734 3fbd 409c c7bd
000000d0: 5fe1 19bb 4c2d 8f3d 5b02 a83d b4df b3bd
000000e0: 9e3b 10bc b662 30bd d0b0 9bbd ec1e 4fbd
000000f0: 99c0 56bd 7b6d 373c 3695 babd 0999 0cbd
00000100: c253 c0bd fab2 36bd 77ae 363c 6c5c 88bd
00000110: ece3 c3bd 6f7b 86bd ee5f cbbd a144 a73a
00000120: 950e ce3d 277e 973c 4778 33bc aae2 acbc
00000130: f0c1 74bd 5f90 c5bd 73f0 87bd 4a0d 883d
00000140: 20f8 823d 8459 af3c 7c64 10bd be53 523a
00000150: b8cd c43d 244f 98bd 792c febd 4d21 4dbc
00000160: b51d ba3d 1a89 2b3d 8798 51bd 6b0c 2a3d
00000170: cd2e b43d 1220 f9bc 08af 56bb d525 373d
00000180: 1d3d 9abd 0210 a13d 0303 e8bc 71b4 2abd
00000190: 6f3a 39bb acc0 adbd ee6d 7b3d 5a92 713d
000001a0: 1472 b43d 9ba7 953c b336 af3d b4d9 f73c
000001b0: e8c8 f1bc 5496 abbc 2df3 9b3d 8ac7 9a3d
000001c0: 95ba d43c 16e5 0ebd cb50 19bd 366e 16bd
000001d0: 4ac1 a83c b18c 513d 6b20 323d cd99 b7bd
000001e0: 78f7 a93d f505 6ebd 088b b2bb ef99 683d
000001f0: ae1f 1a3c 8898 5ebd 6bf3 c43d 5ca6 653d
00000200: 88f7 55bd 806b 8e3d 903c 673c ecbd b13c
00000210: b86b 20bd 8ca7 98bd c8e8 383d df20 84bd
00000220: 4151 ab3d b0cb b43d bec6 af3d 0554 733d
00000230: c01a da3d df43 503c 073c 983d 69d4 793c
00000240: 77d4 583d 48f7 163d fe5e 113d 4713 44bd
00000250: 0ec0 7ebd a440 7e3d 3352 803d 0613 3fbd
00000260: b1cb ae3d 6546 62bb f136 973d cdbc a33d
00000270: b7f0 5ebd 48b6 9f3d 6b3f d6bc aaec 4c3d
00000280: 9ccb f3bb b4c5 70bd d999 b93d 582a c93d
00000290: 55eb 8cbd d0a5 103d 5557 cb3c e40d 58bd
000002a0: 5cbf 713d df3b 7c3d 6487 583d ae58 3ebd
000002b0: 5c45 94bc 86c8 9abd 62f9 083d 547a 81ba
000002c0: dca3 f5bc d3b1 52bd 6ea8 1fbd 1218 05bd
000002d0: eacf d2bd 01f3 aa3c 2f74 e43c c293 7a3c
000002e0: c1ec 333b 7551 2cbb 4520 b4bc c8b0 193d
000002f0: 6318 0e3d 37a4 49bd 8beb 8cbd 38f3 863d
00000300: 4dbd 8a3d 6cfa 9abc 629d 8d3d ea66 8dbd
00000310: a5a2 62bd b08b a5bc 82a8 2a3d b784 dbbc
00000320: 5338 a13d cce9 923d 78cd 193c 49e2 8b3d
00000330: 66f9 593d d378 3ebd 1d60 b6bd 4fe0 0e3d
00000340: 3b16 a23d 0faf 6b3d 4adb 173c daca 283d
00000350: 95f6 1a3d 8101 5ebd d765 053d e4ac c8bc
00000360: dec7 91bd 9417 ae3c f30c 5e3d e0d0 a53c
00000370: 358d bf38 2b2f afbd fb6c 863d 586a d63c
00000380: 090b bd3d e109 56bb 3b51 c1bd 5840 85bd
00000390: 63ae 2fbd 8367 d93d 5f78 9e3c 0ee9 2f3d
000003a0: b2a4 a13d c98f 1b3d 2f32 313d 04a7 a33d
000003b0: 80f9 9d3d 2c77 f3ba 825d 223c a71a 84bc
000003c0: e99f 7d3d 9f26 f7bb 4251 aebd d5de 76bd
000003d0: a25d 6f3d 750d 91bd ea07 693d a4fc 10bd
000003e0: 89ff 9b3d 7996 38bd 7ad4 373d d889 a33d
000003f0: acea 2bbd feb0 6c3d 554a 3abd 167c 6dbc
-0.06793024 -0.013390052 0.01063808 -0.038492564 0.047048934 -0.08132998 -0.033883553 -0.023805756
0.046541285 0.0125080235 -0.06931303 0.01385243 -0.107087106 0.041514635 0.0488159 -0.10666079
0.0424632 0.055595744 0.06090734 0.064353466 -0.0061283316 -0.099571906 -0.026896408 -0.044706378
-0.079222515 -0.019957127 0.030246858 -0.09455721 -0.015720433 0.03161561 -0.016133016 -0.07971227
0.041796714 0.12052237 0.030226536 -0.040685747 -0.06496976 -0.02283434 0.06534973 0.117415294
-0.06917116 0.019309027 -0.12470902 -0.024080874 0.037448775 0.016110905 0.0072721336 0.09438933
0.06702937 0.074854985 -0.046681132 -0.09746599 -0.002348028 0.069910616 0.08203574 -0.08782902
-0.008803276 -0.043062888 -0.07602084 -0.0505666 -0.05242977 0.011195536 -0.09110491 -0.034325633
-0.093909755 -0.04460428 0.011149994 -0.06658253 -0.09564957 -0.06566512 -0.099304065 0.0012761542
0.10061375 0.018492771 -0.010953969 -0.021104176 -0.059755266 -0.09646677 -0.06637659 0.0664316
0.06394982 0.021404989 -0.03525208 0.0008023343 0.0960955 -0.0743697 -0.12410826 -0.012520147
0.090876974 0.041878797 -0.051170852 0.04151575 0.08797989 -0.0304108 -0.0032758135 0.044713814
-0.07531188 0.078643814 -0.028321749 -0.04167599 -0.002826359 -0.08484015 0.061384134 0.058977462
0.08810821 0.018268397 0.08555355 0.030255176 -0.029514745 -0.020945705 0.076147415 0.0755759
0.025967875 -0.034886442 -0.037430566 -0.0367262 0.02059998 0.051159564 0.043487947 -0.08964882
0.08299154 -0.05811115 -0.0054487027 0.056787428 0.009406967 -0.054344684 0.09616741 0.056066856
-0.052238017 0.06954098 0.01411356 0.021697007 -0.03916523 -0.07453832 0.045143872 -0.06451582
0.08365107 0.08827913 0.08582829 0.0594063 0.106496334 0.012711494 0.07433324 0.015248396
0.052936997 0.03685692 0.035490982 -0.047869947 -0.062194876 0.062073365 0.06265678 -0.046649
0.08534945 -0.0034526822 0.07383526 0.07994995 -0.054428782 0.07798439 -0.026153287 0.050030388
-0.0074400436 -0.058782294 0.09062547 0.098225296 -0.068808235 0.03531438 0.024821917 -0.052747622
0.059020385 0.061580535 0.052863494 -0.04647129 -0.01809948 -0.07557778 0.033440955 -0.0009878376
-0.02998536 -0.051439118 -0.038978986 -0.03249366 -0.10293563 0.020867826 0.027887432 0.015294017
0.0027454349 -0.002629367 -0.021988044 0.037522107 0.034691226 -0.049228873 -0.06880864 0.06589359
0.067743875 -0.018918239 0.06914784 -0.06904395 -0.05533089 -0.02020821 0.041664608 -0.026796682
0.07872071 0.071734995 0.0093873665 0.0683027 0.05321636 -0.046501946 -0.08905051 0.034881886
0.079143964 0.057539996 0.009268591 0.04120908 0.037832815 -0.054200653 0.032567825 -0.024496503
-0.071182 0.021251477 0.054211568 0.0202412 9.1338916e-05 -0.085539185 0.06563755 0.026173756
0.092306204 -0.0032659697 -0.094393216 -0.06506413 -0.042890918 0.106154464 0.019344507 0.042946868
0.07892741 0.03797892 0.04326075 0.0799084 0.07713604 -0.0018574945 0.009909989 -0.01612599
0.06192008 -0.007542446 -0.085115924 -0.060271103 0.058438905 -0.07082645 0.056892313 -0.035397187
0.07617099 -0.045065377 0.044880368 0.07985276 -0.041971847 0.05778598 -0.045481045 -0.014494916

model.encoder.attn_blck.out_proj.bias f4 [108]
00000000: d0b4 d2ba 13cd 36bc d064 e2bb bfeb 323c
00000010: 6f78 e03c f0a1 273c d0da f83b 03f4 7eba
00000020: d201 fa3b 479c 953c cbf1 86b9 eb6e 01bc
00000030: 9a4d 203c 5f1d 19bb 4898 5fbc 5e7a 263c
00000040: e1aa 23bc c2cb 883b 36eb 823b 7d10 bd3b
00000050: cf96 4b3c 9293 533b 0499 89bc dac7 c7bc
00000060: 3fae 7e3c 1579 16ba cbd5 deba 8a91 a43b
00000070: a04d 87bb 25a1 bfbb c2a2 5abc 9ac5 543c
00000080: c301 a9bc 7fdb 383c c8d9 03bc 9b78 173c
00000090: 6219 083c 9bd1 4f3c ac26 ad3c 8446 3e3c
000000a0: 87d6 a5bc f598 1cbc 4bde a93b ecf3 453c
000000b0: 587b 0abd faff 7e3c 957d 3fbb ac55 d83b
000000c0: ea95 bf3b 2dce 8d3c 2526 65bc 3443 57bc
000000d0: 8eea 9d3c f613 8dbb f71a 8bbb 4256 ce3b
000000e0: f5cc ebbc 7764 a8bc d226 d13c 6738 4c3c
000000f0: f131 773c 8a69 41ba 19f3 58bb ad23 be3b
00000100: 165e 20bc ef47 e03c 535c 0abc 92ec 99bb
00000110: 17f9 053b 0a3b 00bc d34f c9bb ef02 ddbb
00000120: 3f7c cebb c74c b2bc 5587 873b 015f 81bc
00000130: a33d d4bc 9d4d 07bc 7261 503c de45 83ba
00000140: 151e 843c 055c 94ba ee1a 953c 083f 0b3c
00000150: 752b 08bc c381 8b3b f36b dcbb aebe 283b
00000160: 4c6a 513b a6c5 0f3c 3a6d 543c 4dda c2bc
00000170: eb69 623c 815e 013c c61e 03bd fa0a b939
00000180: 31e1 4b3b 0d16 183c 2898 80bc 12ed 99bb
00000190: f823 9d3c 7ebc 82bc ce7c 96bc cd55 49bc
000001a0: 8bd2 b73b c293 103b 5f3e f4bb 80aa c93b
-0.0016075615 -0.011157292 -0.0069089904 0.010920464 0.027401177 0.01023148 0.007594444 -0.00097256916
0.0076296115 0.018262995 -0.00025738621 -0.00789998 0.009784127 -0.0023363454 -0.0136471465 0.010161011
-0.009989471 0.0041746804 0.0039953245 0.005769788 0.012426092 0.0032284004 -0.016796596 -0.024387289
0.015544473 -0.00057400885 -0.0017000971 0.0050222324 -0.0041291267 -0.0058480673 -0.013344469 0.012986565
-0.020630723 0.011282801 -0.008047529 0.009245063 0.008306833 0.012684251 0.021136604 0.011613492
-0.020243896 -0.009557952 0.00518397 0.012082081 -0.033809036 0.015563959 -0.002921914 0.0066020098
0.0058467286 0.017310226 -0.013986145 -0.013138581 0.019276883 -0.004305358 -0.004245158 0.006296904
-0.028784255 -0.020555718 0.025531206 0.012464619 0.015087591 -0.0007378092 -0.0033103882 0.0058025927
-0.009788057 0.02737805 -0.008444863 -0.004697391 0.0020442659 -0.007826576 -0.006143549 -0.0067447345
-0.0063014324 -0.021765126 0.004136006 -0.015792372 -0.025908297 -0.008258251 0.012718545 -0.0010015329
0.016127625 -0.0011318928 0.018201318 0.008498915 -0.008311142 0.004257412 -0.0067267357 0.002574842
0.0031954227 0.00877515 0.012965495 -0.023785735 0.013819198 0.007896067 -0.03201177 0.00035294128
0.0031109566 0.009282601 -0.015697554 -0.0046974504 0.01918219 -0.01595902 -0.018370058 -0.012288523
0.0056098155 0.0022060727 -0.0074537243 0.0061543584

model.encoder.mlp.2.weight f4 [108, 108]
00000000: e58d cdbd f503 9a3d 8a76 723d 66e9 a33d
00000010: f777 1fbc ab52 a73d 0641 74bd 8a7b 323d
00000020: 4288 41bc 082b 90bd 0e04 b9bd a6fa 533d
00000030: 0ebd 4bbd f3f7 3d3d 75b1 a6bd d979 9b3d
00000040: 8f2b c6bd 0a4d 73bc badf d5bc a469 8e3b
00000050: 34f7 36bd 095b 4dbc 53ff 403c 1a92 94bd
00000060: 5d3d 80bd 1a87 813d 0236 813d 4df9 0ebd
00000070: dde0 a93b ef14 903d 8895 3a3d 85d8 78bd
00000080: 4d78 333d f4cf d43b 8aaa 653d 3697 aebd
00000090: 7f26 943d ccab e2bc 22de 90bd bf26 f9bc
000000a0: 7a7a a7bd d54f 89bd 3865 ec3d 468b 363d
000000b0: 6d33 793b cba5 d73d 0c72 85bd 6eb4 8e3d
000000c0: b8fb c03d 615c 85bd 2720 e7bc 99f9 87bd
000000d0: 2659 9f3d 5b5d 68bd 9c7e f23c d0d2 853a
000000e0: 607d 83bc 01f3 2b3d 482a f13c eff1 973b
000000f0: 1e0a a93d b4c2 5f3d 5d7e 803d ca47 383d
00000100: 9e16 71bd 24cd 813d aee4 563d d052 5bbc
00000110: d9c3 c33b 0e4b c9bc 2bc2 3b3d 7b44 ecbc
00000120: afc6 173d e792 8b3d 01a0 953d 7939 b43d
00000130: a904 8d3b 5568 9f3d c4b9 3a3b 8d20 92bc
00000140: 4782 19ba ddb5 2abd 4b9c 693d d009 4abd
00000150: 5c6b 88bd fccd 273d 26fc 183d a86c 51bc
00000160: 436e 6c3b 9351 90bc 5026 0fbc ee6d 433c
00000170: be35 efbc 77bb 8a3d c947 e6bc 982e e7bb
00000180: 0202 60bd 1651 1cbd 44f1 b2bd b706 31bd
00000190: 032e 833d e344 5e3c 274c 4a3d 99a8 9abd
000001a0: 5632 7c3d 160d a33d 8001 c63d d749 193d
000001b0: 5725 9f3c 2b19 e7ba 9d79 1c3d 5a9e fbbc
000001c0: 56d4 64bd 678d 973d ffc6 69bd d7ca a6bd
000001d0: c456 88bd 352f 23bd a965 76bd c206 973d
000001e0: a38d 063d 66d2 823c 8e1d 133d 7a3e a3bc
000001f0: 0c9e 8abd fcfd 223d 660b c3bd 115b 213d
00000200: 2d2e 86bd cb7d 2e3b e24d 9f3d 5743 823d
00000210: c389 693d 18e0 9e3c 3b12 f4bc 9b2c 0a3d
00000220: a5f2 7cbd 00ab debc 2f7b 6f3c 570c 833c
00000230: b93e 1f3d 2eab eebc a9d4 0fbb e511 473d
00000240: 54b1 9abd a5b9 c0bc 9c61 463d 830e 903d
00000250: 80a9 84bd b6f2 6d3d 7feb b03d a60e 1cbd
00000260: 594b b53d a5e6 ddbc db86 0c3b 4a6a 39bc
00000270: 322d 41bd 3208 5abd 20a2 5cbb f1a9 fa3b
00000280: 5b70 883c df51 97bd 5836 98bd 6593 0cbd
00000290: 0ee3 e33b f020 0bbd 676f 413c 5609 93bd
000002a0: eae9 0d3d 1c9b 943d 3cb3 b83d 83df 3e3d
000002b0: 4c41 e23c bfd9 2e3b 486d 81bd 90cc a7bd
000002c0: 420a 583a 82ac 0f3d 3632 8dbc 9836 043c
000002d0: ca1f 5f3d c2f9 9a3a 437c bfbc 7678 a83c
000002e0: f1cf abbd a254 11bc 966c 013d f3dc 893d
000002f0: feb6 7b3c 6022 f2bc db61 c8bd 3093 a93d
00000300: 46f2 9f3d 67a4 bebd b1b5 3d3d ccce e9bc
00000310: 9c8e 903d 635d b6bc 9a56 f8bb 635b 9a3d
00000320: b8de 6f3d e9c2 1ebd 3a8b 153d 92a4 073d
00000330: dde8 503d d1cf e639 90a5 76bd 8ae6 973b
00000340: e3cf 49bd 355e 29bb 8453 2abd b524 88bd
00000350: b16f 913c ba48 91bd a25f d03d 5ba8 c03c
00000360: 4a27 46bd 3c71 3abc a066 1fbd 0d9f 873d
00000370: 525d 3ebc 4ed6 dbbc b951 863c eb00 743d
00000380: 8808 853d b99f d83b cf68 4dbd e18b af3c
00000390: d660 223d c7e5 f2bc 14e6 dd3c 54c8 013d
000003a0: 538f 9bbc d720 34bd be9c 613d 5078 b03d
000003b0: 8111 a83d 978f 9cbd ee6c bc3c 22b8 ecbc
000003c0: 6c3c 90bc e09e 963c acd5 a7bd 27b5 a5bc
000003d0: 21cd ed3c 4cca a5bd 3d80 c73d 493d 10bd
000003e0: a03f 15bd c134 65bd 7293 51bc b991 14bd
000003f0: 510f 24bd ccdd edbd 68e1 92bd 7989 d1bc
-0.1003683 0.07520286 0.05919508 0.080035016 -0.009733192 0.081700645 -0.059632324 0.043574847
-0.011812272 -0.070394576 -0.090339765 0.05175271 -0.049740843 0.04637904 -0.08139316 0.075916
-0.09676277 -0.0148499105 -0.026107658 0.0043460894 -0.044669345 -0.0125339115 0.011779624 -0.07254429
-0.06261704 0.06324597 0.06309129 -0.03490572 0.0051842765 0.07035243 0.04555276 -0.060753364
0.0438159 0.0064945165 0.05607084 -0.08524935 0.07233905 -0.02766981 -0.070736185 -0.030413983
-0.081776574 -0.0670468 0.115427434 0.044566415 0.0038025037 0.105296694 -0.06515893 0.06968008
0.094230115 -0.065117605 -0.028213574 -0.06639404 0.077806756 -0.056729656 0.029601388 0.0010209922
-0.016050994 0.041979793 0.029439107 0.004636995 0.08253883 0.054629043 0.06274102 0.04499034
-0.05885946 0.063379556 0.05246418 -0.013386443 0.0059742746 -0.024571922 0.04583947 -0.028841248
0.037054714 0.06815129 0.07305909 0.088000245 0.004303534 0.07783572 0.0028492073 -0.017837787
-0.00058558997 -0.041677345 0.05703382 -0.049325764 -0.06661102 0.040967926 0.037349842 -0.012782253
0.0036076463 -0.017617023 -0.008737162 0.011928065 -0.029200431 0.06774037 -0.028110402 -0.007055115
-0.054689415 -0.038163267 -0.08737424 -0.043219294 0.064052604 0.013566229 0.04938903 -0.07551689
0.06157144 0.0796148 0.09668255 0.037423935 0.019426985 -0.0017631402 0.038201917 -0.030715156
-0.05586656 0.07400017 -0.057074543 -0.081441574 -0.06657174 -0.039839942 -0.060155544 0.07374336
0.03284992 0.015969466 0.035916857 -0.019927252 -0.06768426 0.039793 -0.095236585 0.03939349
-0.06551776 0.0026625271 0.07778527 0.063605 0.057016145 0.019393966 -0.02979385 0.033733945
-0.06175484 -0.027181149 0.014616772 0.015997095 0.038878176 -0.02913436 -0.0021946824 0.04860105
-0.07553354 -0.023526022 0.04843293 0.07034018 -0.06477642 0.058092795 0.08638667 -0.038099907
0.08852262 -0.027087519 0.0021442685 -0.011316845 -0.047162242 -0.053230472 -0.003366597 0.007649653
0.016655138 -0.073886625 -0.0743224 -0.034320254 0.0069545573 -0.03396696 0.011806346 -0.07179515
0.034646906 0.07256147 0.09018561 0.046599876 0.027619027 0.002668008 -0.06319672 -0.08193314
0.00082412746 0.035076626 -0.017235857 0.008069657 0.054473676 0.0011823701 -0.023374682 0.020565253
-0.08389271 -0.008870276 0.031597696 0.06731596 0.015363453 -0.029557407 -0.097842894 0.08280027
0.07809882 -0.09308701 0.046315853 -0.028540991 0.070584506 -0.022261327 -0.007578683 0.07536962
0.05856201 -0.0387601 0.03650973 0.03311593 0.051003326 0.00044023854 -0.060216486 0.0046356367
-0.04927052 -0.0025843505 -0.041583553 -0.06647626 0.017753454 -0.070939496 0.101744905 0.023517778
-0.048377313 -0.011379536 -0.03891623 0.066221334 -0.011618929 -0.026835587 0.01639639 0.059571188
0.06495768 0.0066108373 -0.05014878 0.021429004 0.03964313 -0.029650582 0.027087249 0.03168519
-0.01898924 -0.04397663 0.05508112 0.08616698 0.082064636 -0.07644575 0.02300116 -0.028896395
-0.017606936 0.018386304 -0.081950516 -0.020227982 0.029028477 -0.08095226 0.097412564 -0.035214696
-0.03643763 -0.055958513 -0.012791501 -0.036271784 -0.04005367 -0.1161457 -0.07171899 -0.025578247

model.encoder.mlp.2.bias f4 [108]
00000000: 30d8 b1bd 5cd1 82bd 02c8 493d ffe5 fb3c
00000010: 530a 4a3d 4056 d0bc c7a2 613d 38bf 623d
00000020: 053c 713d 6d91 98bd 27c1 b3bd f303 913c
00000030: 0913 923d 7f57 00bc 0710 4ebd 5984 25bd
00000040: 4ab6 ac3d cb2a 50bc 2160 073d bfba 89bd
00000050: 7ba2 adbd c15b 423d 16e8 623d 3f32 16bd
00000060: ad3a b83d 3df4 b43d 1d2e 5f3b 90e7 9f3d
00000070: dca5 413d 3c37 0a3d 04bb 953d d5a6 1abd
00000080: 0b77 143d 222b de3c 23c7 fd3c d536 923d
00000090: 0495 8439 ea4b fdbc 0545 883d 03e1 1ebd
000000a0: e27e 26bd 53c4 80bc 1a98 12bd facd 70bc
000000b0: 1ade 3bbd 801c c9bc c103 893d 433a b53c
000000c0: a033 893c a766 883c db4f 413c 9a7b 35bc
000000d0: 554e 553d 54da 3e3c 936e aebd 5cf0 27bd
000000e0: 29e4 7dbd df6c 1f3d 98bb abbc ad19 903d
000000f0: c9c1 aa3d a1b9 29bd e670 2d3d f10d 6739
00000100: 7ebb 98bd 46c3 0139 8754 b73c 23b4 b9bb
00000110: 3d0a 9ebd a854 b3bd eebf a63d 2eb7 fdbb
00000120: c331 80bd bd0e c4bd e73f d0bb b6ac 6abd
00000130: 14b2 3c3d bbd5 a23d 81e0 d9bc cb69 74bd
00000140: 3eda 84bd 9e9c a4bd df97 7cbd 2fe1 5a3d
00000150: 486b 5abc 1369 1c3b f454 323d 868e 3bbd
00000160: 524d 8dbc e9c8 b0bd 76c3 71bc dba3 c6bc
00000170: 8162 88bd 4394 033d a3e5 ccbb c0da 2abd
00000180: 3f43 293d 625c a73c 3986 943c 44ac a8bc
00000190: 1ef6 a7bd a67e a43d c1e2 5c3d c5da 233d
000001a0: 20c4 aabc 7093 cd3d 4241 933d ff0d 23bd
-0.086838126 -0.063875884 0.049263008 0.03074932 0.049326252 -0.025431752 0.055086877 0.05535814
0.05889513 -0.07449613 -0.08777075 0.017702078 0.07132537 -0.007833361 -0.050308254 -0.04040942
0.084332064 -0.012705515 0.03305066 -0.06725072 -0.08478256 0.047450785 0.055397116 -0.036669012
0.089955665 0.08835647 0.0034054585 0.07807839 0.047277316 0.03374408 0.07311061 -0.03775676
0.03624634 0.027120177 0.030978745 0.07139365 0.00025288027 -0.030919988 0.066537894 -0.038788807
-0.04064835 -0.015718615 -0.035789587 -0.014697546 -0.04586611 -0.024549723 0.06690169 0.022122508
0.01674825 0.016650511 0.011798824 -0.011076832 0.052076656 0.011648733 -0.08517184 -0.04100071
-0.06198517 0.038922187 -0.020963475 0.07036147 0.08337743 -0.041436795 0.042343996 0.0002203507
-0.07457636 0.00012375144 0.022379173 -0.005667226 -0.077167965 -0.08756381 0.081420764 -0.007742784
-0.06259491 -0.095731236 -0.006355274 -0.057293616 0.046068266 0.07950922 -0.02659631 -0.059671205
-0.06486939 -0.08037685 -0.061668273 0.053437408 -0.013331242 0.002386634 0.04353805 -0.045790218
-0.017248783 -0.086320706 -0.014756074 -0.024248054 -0.06659413 0.032123815 -0.006252961 -0.041712523
0.041323896 0.020429794 0.018130409 -0.020589955 -0.0820124 0.08031969 0.053927187 0.040003557
-0.020845473 0.10037887 0.07190181 -0.03980827

model.encoder.layer_norm.weight f4 [108]
00000000: d5c6 753f 775f 793f 53cd 7a3f ae2e 7c3f
00000010: 2aae 783f 5d76 813f 6be7 7e3f 461e 7d3f
00000020: 8334 823f 2c24 7a3f f96a 733f 8a9a 7a3f
00000030: c875 793f 8a89 793f f8bc 7a3f b8b6 823f
00000040: bbb2 803f 449c 7a3f 74a1 783f a896 7d3f
00000050: 77c6 7c3f 0ad5 7c3f 3e17 803f 005f 7c3f
00000060: 402a 823f eece 7b3f a77e 803f 04d0 7d3f
00000070: c612 7a3f 0b53 803f 3ee1 743f d173 783f
00000080: 2d5e 7c3f 2739 7b3f d377 7d3f f933 7d3f
00000090: 95bc 7d3f 6dd3 773f 3c13 803f a652 803f
000000a0: 10d6 723f 00f7 7d3f eb7f 813f 7388 813f
000000b0: af7d 7e3f e3ca 7b3f e2d8 783f 882a 7a3f
000000c0: 4e83 813f e590 7d3f 9ef4 7e3f 1420 7b3f
000000d0: 2dc8 7e3f 5911 803f 9b32 7c3f d12b 7b3f
000000e0: a90d 793f 24e6 793f 9088 7d3f 3ca3 7d3f
000000f0: d347 783f a834 7a3f 8e5c 803f b769 763f
00000100: ea03 7c3f 4128 7e3f 7b03 7d3f a212 7b3f
00000110: 7f97 793f be6b 7c3f 84e2 7b3f 5f1d 7c3f
00000120: a778 7f3f 8a74 7a3f b0d1 7d3f 0e4e 763f
00000130: b7bb 7f3f 9e92 763f 2c5c 813f b5f5 7b3f
00000140: 7685 7a3f 50c1 7a3f 0dec 6e3f a278 813f
00000150: cdde 7c3f e302 7d3f 6998 7c3f 0886 7a3f
00000160: c410 783f e2d1 783f de12 803f 3147 793f
00000170: d123 803f 6321 7a3f 5ce8 753f 41bd 793f
00000180: 9493 7c3f 9f11 803f 7aab 733f 95c6 773f
00000190: 4664 823f a2cf 7b3f 308b 773f c50e 823f
000001a0: 5dae 7d3f d72e 7f3f 1f8c 7e3f 327e 813f
0.9600652 0.9741129 0.9796955 0.9850873 0.97140753 1.0114247 0.99571866 0.9887432
1.0172275 0.97711444 0.950851 0.9789206 0.97445345 0.9747549 0.97944593 1.0212011
1.0054544 0.9789469 0.9712136 0.9905801 0.98740333 0.9876257 1.0007093 0.9858246
1.0169144 0.98362625 1.0038651 0.9914553 0.97684896 1.0025343 0.9565619 0.9705172
0.985812 0.9813408 0.9901096 0.9890743 0.9911588 0.96806985 1.000587 1.0025222
0.94857883 0.9920502 1.0117162 1.0119766 0.9941053 0.98356456 0.97205937 0.9772115
1.0118196 0.99049217 0.99592006 0.9809582 0.99524194 1.0005294 0.9851472 0.98113734
0.9728647 0.9761679 0.990365 0.990772 0.96984595 0.977366 1.0028245 0.9625506
0.9844347 0.9928017 0.98833436 0.98075306 0.9749679 0.986019 0.9839251 0.98482317
0.99793476 0.97834074 0.9914808 0.9621285 0.99895805 0.9631747 1.0106254 0.98421794
0.97859895 0.9795122 0.93328935 1.0114939 0.98777467 0.9883253 0.9867006 0.97860765
0.9690058 0.97195256 1.0005758 0.97374254 1.001093 0.97707194 0.9605768 0.97554404
0.98662686 1.0005378 0.9518353 0.9678739 1.0186851 0.983637 0.9669676 1.0160757
0.9909418 0.99680847 0.9943256 1.0116637

model.encoder.layer_norm.bias f4 [108]
00000000: b6ca 85bc b17c d5bc 2ffc ebbc 84ce 7ebb
00000010: 8afc 74bc 5050 3fbc 5cd1 debb 0cfb adbc
00000020: 9a72 b8bc cca6 2fbc 26db 96bc c84a b5bc
00000030: 2b50 9abc 8f2a 1abd 23c2 31bd f5bf e1ba
00000040: 609c c0bc 03e5 97bc d571 d6bc 138a 0abd
00000050: 397c 12bc 7c8c c8bc 7b0e c6bc 559b 00bd
00000060: eba3 c7bb 4891 03bd e405 a4bc cd89 63bc
00000070: 2e52 efbc 5c30 39bc 73d2 c7bc d1a4 85bc
00000080: 84a8 ecbc f0c6 b4bc 4ec2 5dbc 7adc a4bc
00000090: 78fe 65bc da97 92bb c184 1cbc deaf 84bc
000000a0: a4e0 8cbc 1e67 bfbc 774b 84bc a652 6bbc
000000b0: 24e7 3bbd a364 88bb 1ee1 0bbd f638 a7bc
000000c0: 85bf 5fbc e30d ff38 1899 fabc 2e85 e1bc
000000d0: 4aca 9bbc ad34 5dbc c4cd 8abc 5cf6 0bbd
000000e0: e653 54bd 3bc2 fbbc 88b7 13bc e4bd 96bc
000000f0: 575e 1d39 5758 88bc 8949 9ebc 72d3 ffbc
00000100: 7219 d5bc 512c 2ebc 3b38 e1bc 41a6 51bd
00000110: 3451 18bc 9c8a 0cbd 97d2 e1bc 4ece 3dbc
00000120: c2f4 7abc f51c 25bd d675 aabc 4d59 eebc
00000130: 705b b6bc 0d61 debc eff4 60bc 2782 1fbd
00000140: b478 39bc 135c 91bc c872 b4bc bb81 88bc
00000150: 4397 1abd d561 bcbc 4eb3 e5bc 5ce8 99bc
00000160: 6088 06bd 8249 54bc f472 b7bb 9ca7 b9bc
00000170: cf4d 6bbc 0eb5 e4bc 06d1 64bd 87fc 0fbd
00000180: 3e3d 29bc 75db 27bc cd28 dcbc d050 69bd
00000190: f880 983b 09f9 adbc 2376 1dbd 229a e4bc
000001a0: cd0e 63bc ad52 97bc 18b5 17bd 7a57 aebc
-0.016332012 -0.026060434 -0.028806774 -0.0038880417 -0.014952788 -0.011676863 -0.00679986 -0.021237873
-0.022515584 -0.01072092 -0.018415045 -0.022130385 -0.018837055 -0.037638243 -0.043398034 -0.0017223345
-0.023512065 -0.018541818 -0.026177326 -0.033823084 -0.00894075 -0.02448105 -0.024176827 -0.031398136
-0.0060925386 -0.032120973 -0.02002234 -0.013887835 -0.029213991 -0.011303034 -0.024392342 -0.016313942
-0.028888948 -0.022067517 -0.013535095 -0.020124663 -0.014037721 -0.0044736685 -0.009553135 -0.016197141
-0.01719696 -0.0233646 -0.016149266 -0.014362967 -0.04587473 -0.0041623875 -0.034150235 -0.020412903
-0.013656502 0.00012161934 -0.030590579 -0.027529325 -0.019017357 -0.013501328 -0.01694382 -0.034170493
-0.051837824 -0.030732265 -0.009015925 -0.018401094 0.00015007831 -0.016643686 -0.019322174 -0.031228755
-0.02601311 -0.010630683 -0.027492633 -0.051183943 -0.009296704 -0.034311876 -0.027566237 -0.011584831
-0.015317144 -0.04031082 -0.020808142 -0.029095316 -0.022260398 -0.027145887 -0.013730272 -0.038942482
-0.011320282 -0.0177441 -0.022027388 -0.016663423 -0.03774191 -0.022995869 -0.0280396 -0.018787555
-0.0328449 -0.012956979 -0.0055984203 -0.02266293 -0.014361813 -0.027918365 -0.055863403 -0.03515294
-0.010329543 -0.010245194 -0.026874924 -0.056961834 0.004654046 -0.021236913 -0.038442742 -0.027905528
-0.013858509 -0.01847204 -0.03703794 -0.021281946

model.input_embg.class_token f4 [1, 1, 108]
00000000: 7ec8 62bf 5738 14bf a899 89bf 905d 28bf
00000010: ad6b 493d 2819 94bf 0bb4 0bbf 9480 923f
00000020: d2ac 1ebf 0295 673d 9f44 2b3f d460 89bf
00000030: e6a6 c3bf d3b1 6bbf e58c 113b d80d 17bf
00000040: e2e1 24bf 7734 6dbd db06 22bf af41 dfbf
00000050: f555 1bbf a6ee 9b3f 47b6 bdbf c930 19bf
00000060: 7ece f0bd 9525 0bbf d89c 853e 228e 0b40
00000070: c9c5 ee3f 9e55 10bf 476a a83d cdb6 203e
00000080: 47ce 763f d749 89bf b28d 23bf 94a4 683f
00000090: 1383 713f 3fbd fbbe 3fba 2ebc f0f5 40be
000000a0: 8618 bdbf 5b1f 99be 7d3e 8d3e 4406 2bbf
000000b0: 0188 053f 4600 35be 8d5a 883e 1d1c 23c0
000000c0: 3cbe 1f3e e6db ee3b 0ed3 ce3e ea17 603f
000000d0: d5c8 5abf e515 40bf 0c19 e73e 054b 5bbf
000000e0: 2eb8 7c3e db29 cfbb 54f2 35be 7a9a 37bf
000000f0: 052c 373d 57ee 2b3e aacf 333f 6d90 363e
00000100: cabc 963d 2a23 463f 2f7a fd3e 5053 2fbf
00000110: c256 68bf 006e b1bc 8523 47bf 3a1b 5d40
00000120: f5c6 adbf 36ea eabe 5eb0 07bf b18a 64bf
00000130: 4323 2c3f 687a 7d3f 2e9a 833f 517f 7fbd
00000140: 323d 743f d362 ab3d 4a83 9a3e dd0a 7e3f
00000150: c1ec 90bf 2bd0 cb3e 9721 b4bf 208b a53f
00000160: a366 b3ba dfb9 083f b57f 95bd 4d86 10bf
00000170: bc74 5c3f 7ff4 5fbf 8add b9bf 87cb 0dbf
00000180: 141a acbf f38b e43e 4a07 133f 75f2 d5bd
00000190: 179b 423f 3988 31bf 11fa 23be 036e 173f
000001a0: 4f00 c63e f968 283f 6694 8c3f 767f 283f
-0.88587177 -0.5789847 -1.0750017 -0.65767765 0.049174953 -1.1570177 -0.545716 1.1445489
-0.6198245 0.05653859 0.6690158 -1.0732675 -1.5285308 -0.92068213 0.0022209224 -0.590055
-0.6440717 -0.057911362 -0.6329171 -1.744192 -0.60678035 1.2182205 -1.4821252 -0.59840065
-0.11758135 -0.5435422 0.26096225 2.18055 1.8654109 -0.5638064 0.08223396 0.15694733
0.96408504 -1.0725659 -0.63888085 0.90876126 0.9434063 -0.4916782 -0.010664522 -0.18843818
-1.4773109 -0.29906735 0.27586737 -0.66806436 0.5216065 -0.17675886 0.26631585 -2.548591
0.15599912 0.0072893975 0.40395397 0.8753649 -0.85462695 -0.7503341 0.45136297 -0.85661346
0.24679634 -0.006322128 -0.17768222 -0.7172009 0.044719715 0.16790138 0.70238745 0.17828532
0.073602274 0.77397406 0.4950728 -0.684865 -0.9075738 -0.021658897 -0.77788574 3.4547868
-1.3576342 -0.45881814 -0.5300349 -0.89274126 0.67241305 0.990149 1.0281427 -0.062377278
0.95405877 0.083684586 0.3017829 0.99235326 -1.1322252 0.39807257 -1.4072751 1.2933083
-0.0013687204 0.53408617 -0.07299749 -0.56454927 0.8611562 -0.87482446 -1.4520733 -0.55388683
-1.3445458 0.44638023 0.57433 -0.10446636 0.760179 -0.69348484 -0.16013362 0.5915224
0.3867211 0.65785176 1.0982788 0.6581949

model.input_embg.positional_encoding.pe f4 [1, 31, 1]
00000000: 0000 0000 a46a 573f b7c7 683f c381 103e
00000010: cfbd 41bf 107c 75bf 8c0f 8fbe 4630 283f
00000020: 9546 7d3f 3201 d33e f844 0bbf 5cff 7fbf
00000030: d85c 09bf 2220 d73e 7298 7d3f 4479 263f
00000040: 1068 93be 251e 76bf b340 40bf 6979 193e
00000050: c8b6 693f 102f 563f 1505 11bc e6a1 58bf
00000060: fcd3 67bf 3887 07be 0837 433f 0ed5 743f
00000070: 2ab4 8a3e e9e3 29bf a4ef 7cbf
0.0 0.84147096 0.9092974 0.14112 -0.7568025 -0.9589243 -0.2794155 0.6569866
0.98935825 0.4121185 -0.5440211 -0.9999902 -0.53657293 0.42016703 0.9906074 0.65028787
-0.2879033 -0.96139747 -0.75098723 0.1498772 0.9129453 0.8366556 -0.008851309 -0.8462204
-0.9055784 -0.13235176 0.76255846 0.95637596 0.2709058 -0.6636339 -0.9880316

model.input_embg.layer_norm.weight f4 [108]
00000000: 0000 803f 0000 803f 0000 803f 0000 803f
00000010: 0000 803f 0000 803f 0000 803f 0000 803f
00000020: 0000 803f 0000 803f 0000 803f 0000 803f
00000030: 0000 803f 0000 803f 0000 803f 0000 803f
00000040: 0000 803f 0000 803f 0000 803f 0000 803f
00000050: 0000 803f 0000 803f 0000 803f 0000 803f
00000060: 0000 803f 0000 803f 0000 803f 0000 803f
00000070: 0000 803f 0000 803f 0000 803f 0000 803f
00000080: 0000 803f 0000 803f 0000 803f 0000 803f
00000090: 0000 803f 0000 803f 0000 803f 0000 803f
000000a0: 0000 803f 0000 803f 0000 803f 0000 803f
000000b0: 0000 803f 0000 803f 0000 803f 0000 803f
000000c0: 0000 803f 0000 803f 0000 803f 0000 803f
000000d0: 0000 803f 0000 803f 0000 803f 0000 803f
000000e0: 0000 803f 0000 803f 0000 803f 0000 803f
000000f0: 0000 803f 0000 803f 0000 803f 0000 803f
00000100: 0000 803f 0000 803f 0000 803f 0000 803f
00000110: 0000 803f 0000 803f 0000 803f 0000 803f
00000120: 0000 803f 0000 803f 0000 803f 0000 803f
00000130: 0000 803f 0000 803f 0000 803f 0000 803f
00000140: 0000 803f 0000 803f 0000 803f 0000 803f
00000150: 0000 803f 0000 803f 0000 803f 0000 803f
00000160: 0000 803f 0000 803f 0000 803f 0000 803f
00000170: 0000 803f 0000 803f 0000 803f 0000 803f
00000180: 0000 803f 0000 803f 0000 803f 0000 803f
00000190: 0000 803f 0000 803f 0000 803f 0000 803f
000001a0: 0000 803f 0000 803f 0000 803f 0000 803f
1.0 1.0 1.0 1.0 1.0 1.0 1.0 1.0
1.0 1.0 1.0 1.0 1.0 1.0 1.0 1.0
1.0 1.0 1.0 1.0 1.0 1.0 1.0 1.0
1.0 1.0 1.0 1.0 1.0 1.0 1.0 1.0
1.0 1.0 1.0 1.0 1.0 1.0 1.0 1.0
1.0 1.0 1.0 1.0 1.0 1.0 1.0 1.0
1.0 1.0 1.0 1.0 1.0 1.0 1.0 1.0
1.0 1.0 1.0 1.0 1.0 1.0 1.0 1.0
1.0 1.0 1.0 1.0 1.0 1.0 1.0 1.0
1.0 1.0 1.0 1.0 1.0 1.0 1.0 1.0
1.0 1.0 1.0 1.0 1.0 1.0 1.0 1.0
1.0 1.0 1.0 1.0 1.0 1.0 1.0 1.0
1.0 1.0 1.0 1.0 1.0 1.0 1.0 1.0
1.0 1.0 1.0 1.0

model.input_embg.layer_norm.bias f4 [108]
00000000: 0000 0000 0000 0000 0000 0000 0000 0000
00000010: 0000 0000 0000 0000 0000 0000 0000 0000
00000020: 0000 0000 0000 0000 0000 0000 0000 0000
00000030: 0000 0000 0000 0000 0000 0000 0000 0000
00000040: 0000 0000 0000 0000 0000 0000 0000 0000
00000050: 0000 0000 0000 0000 0000 0000 0000 0000
00000060: 0000 0000 0000 0000 0000 0000 0000 0000
00000070: 0000 0000 0000 0000 0000 0000 0000 0000
00000080: 0000 0000 0000 0000 0000 0000 0000 0000
00000090: 0000 0000 0000 0000 0000 0000 0000 0000
000000a0: 0000 0000 0000 0000 0000 0000 0000 0000
000000b0: 0000 0000 0000 0000 0000 0000 0000 0000
000000c0: 0000 0000 0000 0000 0000 0000 0000 0000
000000d0: 0000 0000 0000 0000 0000 0000 0000 0000
000000e0: 0000 0000 0000 0000 0000 0000 0000 0000
000000f0: 0000 0000 0000 0000 0000 0000 0000 0000
00000100: 0000 0000 0000 0000 0000 0000 0000 0000
00000110: 0000 0000 0000 0000 0000 0000 0000 0000
00000120: 0000 0000 0000 0000 0000 0000 0000 0000
00000130: 0000 0000 0000 0000 0000 0000 0000 0000
00000140: 0000 0000 0000 0000 0000 0000 0000 0000
00000150: 0000 0000 0000 0000 0000 0000 0000 0000
00000160: 0000 0000 0000 0000 0000 0000 0000 0000
00000170: 0000 0000 0000 0000 0000 0000 0000 0000
00000180: 0000 0000 0000 0000 0000 0000 0000 0000
00000190: 0000 0000 0000 0000 0000 0000 0000 0000
000001a0: 0000 0000 0000 0000 0000 0000 0000 0000
0.0 0.0 0.0 0.0 0.0 0.0 0.0 0.0
0.0 0.0 0.0 0.0 0.0 0.0 0.0 0.0
0.0 0.0 0.0 0.0 0.0 0.0 0.0 0.0
0.0 0.0 0.0 0.0 0.0 0.0 0.0 0.0
0.0 0.0 0.0 0.0 0.0 0.0 0.0 0.0
0.0 0.0 0.0 0.0 0.0 0.0 0.0 0.0
0.0 0.0 0.0 0.0 0.0 0.0 0.0 0.0
0.0 0.0 0.0 0.0 0.0 0.0 0.0 0.0
0.0 0.0 0.0 0.0 0.0 0.0 0.0 0.0
0.0 0.0 0.0 0.0 0.0 0.0 0.0 0.0
0.0 0.0 0.0 0.0 0.0 0.0 0.0 0.0
0.0 0.0 0.0 0.0 0.0 0.0 0.0 0.0
0.0 0.0 0.0 0.0 0.0 0.0 0.0 0.0
0.0 0.0 0.0 0.0
